source/models/lstm_model.pth (torch, 20533 bytes, 9 tensors)

lstm.weight_ih_l0 f4 [64, 12]
0.11829346 0.07902715 -0.08513288 -0.03822099 0.17102878 0.2443664 -0.05765832 -0.20655538
0.09771443 0.13085385 0.10819053 0.35369742 0.16862331 0.08240828 0.045524415 0.19295636
0.07538449 0.17171939 0.36901346 -0.20074289 -0.09918987 0.13843083 0.034205474 0.100199215
0.14755714 0.14802681 0.12876326 0.2065754 0.08414565 0.16083731 0.3975806 -0.251926
-0.14388423 0.08972789 0.15245488 0.044806503 0.2951074 0.094475545 -0.10351325 -0.41941586
0.2617395 0.49486133 -0.33636326 0.051778376 -0.15759188 0.116974734 -0.21905781 0.37824965
0.17819718 -0.2126053 -0.25838536 -0.009953446 0.26215842 0.23515059 0.37604445 -0.024859995
-0.39550167 0.08410206 -0.5025908 0.13329656 -0.19618873 -0.10483921 0.005257041 -0.21275765
-0.17074203 -0.37413508 0.13488418 -0.02105962 -0.11895484 -0.04115958 -0.024251051 -0.06734817
0.025380686 0.08718348 -0.24307588 -0.20889363 0.09989819 -0.08647549 0.092776865 -0.007764946
-0.026843393 0.088392206 0.0018950255 0.1732804 0.11327299 -0.060725503 0.25694972 -0.35168985
0.13976386 0.61931795 -0.7329295 0.11389506 0.13628407 0.030781876 0.18901892 0.67317206
0.11596322 0.054067317 -0.22892497 -0.14155944 0.2354464 0.17370164 -0.16092911 -0.09217152
0.0230764 0.09209712 0.08287482 0.32237697 -0.43099213 0.38471878 0.19611385 -0.06983251
-0.30283445 -0.7759869 -0.053249415 0.064212516 -0.07376516 -0.16177154 0.31975314 -0.19887504
0.26267225 0.11600806 0.41288143 0.17863967 0.22239374 0.56587493 -0.10424119 -0.25187063
0.021003813 -0.11991959 -0.097203426 0.1196506 -0.04708085 -0.08379065 0.28795615 0.17057027
0.12009105 0.104317024 0.09189031 -0.18212143 0.11466993 -0.11461784 0.22744122 0.21471667
0.30880958 0.24542865 0.3539298 0.20248343 0.17858885 0.17498128 0.32009473 -0.19096883
0.06618771 -0.12983686 0.03202707 -0.2034745 0.15058388 0.27612865 0.26157916 0.40227464
0.1136074 0.16578656 0.09155419 -0.16156428 0.05487046 -0.028845208 -0.07851661 -0.12644483
-0.28443566 0.10298509 -0.22164094 -0.27634543 -0.15879117 0.35202372 -0.014722482 0.065648966
-0.021648431 0.013348906 0.3621372 0.13050587 -0.0071938923 -0.011336295 0.32239333 -0.021973738
0.012853407 0.0116378665 0.26750308 -0.24001749 -0.19693038 0.27006435 0.316016 0.0744426
-0.18802112 -0.07446946 -0.33268654 -0.15400134 -0.09160544 0.005376873 -0.30697167 0.19440697
-0.08200448 -0.09284311 -0.010153352 0.09489019 -0.192053 -0.22412458 -0.0011285577 -0.2646302
-0.21416226 -0.10742254 -0.22731692 0.17883836 0.14393242 0.09715384 0.17104119 0.10050007
-0.11058926 -0.2007775 -0.21695165 -0.37184593 -0.12700677 -0.03767699 -0.21133427 0.17331757
0.029923173 0.06517426 0.02157216 0.1413892 -0.3047661 -0.14885984 -0.38617256 -0.32816732
-0.25001055 -0.19732064 -0.18935624 0.29609928 -0.08879963 -0.06810997 -0.08132824 0.16838203
-0.18983807 -0.20932974 -0.4269026 -0.25467637 0.03770288 -0.29098696 -0.36722517 0.06494205
0.098515026 -0.16203783 0.1389521 0.06695676 0.0034909886 0.06910326 -0.08060892 -0.03439288
00000000: d743 f23d fdd8 a13d 265a aebd 9d8d 1cbd
00000010: 2b22 2f3e 303b 7a3e 212b 6cbd 4183 53be
00000020: 811e c83d 8dfe 053e ff92 dd3d d417 b53e
00000030: 97ab 2c3e acc5 a83d cf77 3a3d 5a96 453e
00000040: 2f63 9a3d 35d7 2f3e 55ef bc3e 8b8f 4dbe
00000050: 0f24 cbbd d0c0 0d3e 0a1b 0c3d 3f35 cd3d
00000060: 3819 173e 5794 173e 84da 033e 8088 533e
00000070: 8e54 ac3d 89b2 243e af8f cb3e 72fc 80be
00000080: 6356 13be 42c3 b73d 221d 1c3e 0687 373d
00000090: 5118 973e 657c c13d c1fe d3bd adbd d6be
000000a0: b802 863e 775e fd3e ce37 acbe 9015 543d
000000b0: c45f 21be 7390 ef3d b150 60be f0a9 c13e
000000c0: 5279 363e 34b5 59be 164b 84be c713 23bc
000000d0: a139 863e 51cb 703e e688 c03e 30a7 cbbc
000000e0: 327f cabe b33d ac3d caa9 00bf e57e 083e
000000f0: b3e5 48be f1b5 d6bd 4243 ac3b 24dd 59be
00000100: 00d7 2ebe a28e bfbe 141f 0a3e 3985 acbc
00000110: 989e f3bd f396 28bd 24aa c6bc d6ed 89bd
00000120: 28eb cf3c 418d b23d e2e8 78be 36e8 55be
00000130: 6c97 cc3d 101a b1bd cc01 be3d 1771 febb
00000140: ade6 dbbc f906 b53d 8162 f83a 6b70 313e
00000150: abfb e73d 4ebb 78bd ea8e 833e b110 b4be
00000160: 421e 0f3e 9f8b 1e3f 45a1 3bbf d041 e93d
00000170: 0d8e 0b3e 462a fc3c 2d8e 413e 0155 2c3f
00000180: 207e ed3d b175 5d3d 4f6b 6abe f5f4 10be
00000190: dc18 713e d8de 313e 9aca 24be 6cc4 bcbd
000001a0: b80a bd3c 6a9d bc3d 46ba a93d 980e a53e
000001b0: 00ab dcbe dcf9 c43e 12d2 483e 5904 8fbd
000001c0: 1e0d 9bbe 14a7 46bf 0f1c 5abd da81 833d
000001d0: 3012 97bd 70a7 25be afb6 a33e e6a5 4bbe
000001e0: fa7c 863e a295 ed3d 3265 d33e 51ed 363e
000001f0: 2fbb 633e 2edd 103f 687c d5bd 30f5 80be
00000200: 3010 ac3c 6798 f5bd 9712 c7bd 600b f53d
00000210: d9d7 40bd 6f9a abbd fd6e 933e f9a9 2e3e
00000220: 4cf2 f53d 2aa4 d53d fd30 bc3d 0a7e 3abe
00000230: 11d8 ea3d c2bc eabd 5ae6 683e b0de 5b3e
00000240: 4a1c 9e3e a651 7b3e 4936 b53e d157 4f3e
00000250: ffdf 363e 4b2e 333e 75e3 a33e 558d 43be
00000260: 6c8d 873d f4f3 04be d12e 033d 9f5b 50be
00000270: a932 1a3e bc60 8d3e b4ed 853e f1f6 cd3e
00000280: ffaa e83d f4c3 293e c380 bb3d 1b71 25be
00000290: d9bf 603d c94c ecbc 51cd a0bd c17a 01be
000002a0: 8da1 91be d9e9 d23d d8f5 62be 267d 8dbe
000002b0: 279a 22be 743c b43e 9136 71bc f772 863d
000002c0: 0d58 b1bc 5fb5 5a3c 0c6a b93e 55a3 053e
000002d0: beba ebbb debb 39bc bd10 a53e 4502 b4bc
000002e0: 1997 523c c0ac 3e3c 2af6 883e 25c7 75be
000002f0: 1ea8 49be e045 8a3e d9cc a13e 5d75 983d
00000300: 9c88 40be 7283 98bd e455 aabe 87b2 1dbe
00000310: a29b bbbd 7b30 b03b 642b 9dbe 9f12 473e
00000320: f7f1 a7bd 8724 bebd 3f5a 26bc ca55 c23d
00000330: 8ba9 44be ea80 65be 1dec 93ba 9c7d 87be
00000340: 5a4d 5bbe 5900 dcbd c4c5 68be 6721 373e
00000350: 0563 133e 98f8 c63d 6c25 2f3e fbd2 cd3d
00000360: 9f7c e2bd 9e98 4dbe 9328 5ebe 9762 bebe
00000370: 100e 02be 3053 1abd 0368 58be 297a 313e
00000380: 7121 f53c 157a 853d 19b8 b03c 55c8 103e
00000390: 4d0a 9cbe b76e 18be 69b8 c5be 8c05 a8be
000003a0: 6201 80be 6c0e 4abe 9ae6 41be 539a 973e
000003b0: 95dc b5bd 3d7d 8bbd 6c8f a6bd 576c 2c3e
000003c0: e964 42be 895a 56be fa92 dabe f164 82be
000003d0: 566e 1a3d 3efc 94be f004 bcbe 5600 853d
000003e0: 3fc2 c93d 3fed 25be 7649 0e3e a020 893d
000003f0: 12c9 643b 0386 8d3d 4a16 a5bd 8cdf 0cbd

lstm.weight_hh_l0 f4 [64, 16]
-0.01800081 0.035112984 0.06478197 -0.05716195 -0.058851928 0.06942937 -0.079697765 0.123703726
0.0051413383 0.028895285 0.006879309 0.037120264 0.018661134 0.032211374 0.12670706 0.1413418
0.09833535 0.06649191 0.031242615 0.03800885 0.004215898 -0.069449626 0.046571236 -0.0770717
-0.085912675 -0.18937398 -0.13380249 0.0942278 -0.077949025 0.038308393 -0.10111394 -0.059885845
0.097113796 0.05024174 0.05590353 0.07276838 0.014074418 -0.07475591 0.02845614 -0.0760925
-0.06542867 -0.11073261 -0.14203359 0.07117632 -0.07495428 0.054190166 -0.09070418 -0.087236375
-0.08561222 0.21123047 0.28266743 -0.09340256 -0.047226682 0.1323594 -0.108401366 0.25139567
0.031007495 -0.16677684 0.040614974 -0.11338441 -0.08231542 0.22791545 0.12676096 0.059677213
-0.028280435 0.14550446 0.15901999 -0.07288584 -0.097069636 0.18185861 0.03646154 -0.1168196
0.021594476 -0.14238389 -0.12040474 0.11491031 0.17135952 0.17861456 -0.014481132 -0.16452952
-0.04687913 -0.04938536 -0.06442998 -0.025280211 -0.15977675 0.033524748 -0.051647246 -0.0017077229
0.057017993 0.013240098 -0.008076183 -0.038329888 -0.0137933595 0.0057041477 0.018053757 0.05694007
0.052442502 0.01779821 0.05717901 0.009662514 -0.05332848 0.048241526 -0.016288048 0.112918355
-0.04030158 0.052558597 -0.109762184 -0.02758688 -0.024094744 0.01136907 0.025709344 -0.06388548
-0.11501145 0.02915869 0.013635029 -0.021503422 -0.14895049 0.08877465 -0.14678198 0.49083316
0.094060995 0.2091633 -0.13333039 -0.29686388 0.13978617 -0.018994596 0.14496507 -0.15209612
-0.02679101 0.065856844 0.076962404 -0.068863206 -0.07411822 0.054901827 -0.053798728 0.15432185
0.015715644 0.01065368 -0.024149975 -0.00455199 0.0014868982 0.06540694 0.04915654 0.004384959
-0.0768529 0.16499794 0.09499089 0.09865953 0.22104444 -0.12373965 -0.073935136 0.2035804
0.07449561 0.32506895 0.053511743 0.0046163704 -0.31511226 0.42638293 0.19341487 -0.010356992
0.020135393 0.04296397 0.071712695 -0.029154338 0.02662073 -0.031578965 0.031212825 -0.00071895163
-0.018657098 -0.058131106 -0.114451505 0.06590869 -0.018677939 -0.014957858 -0.0480483 -0.10418219
0.009576507 0.051300205 0.020905457 0.047000974 0.020772006 0.053371016 -0.08222136 0.054678436
-0.026977234 -0.029039247 -0.035424445 0.012290395 0.024431225 0.0867452 0.08366072 0.0082727065
0.04695401 -0.08688188 -0.11638066 0.05007669 0.04404964 -0.017880403 0.002362394 -0.16061261
-0.019041518 -0.073476456 -0.12149396 0.074205 0.08262139 -0.08426041 -0.031622432 -0.082123056
0.079456925 0.010540586 -0.014746246 0.094017796 0.055484343 -0.026038777 0.043734886 -0.15028638
-0.045542397 -0.005151194 -0.07285936 0.0598 0.031246632 -0.03135784 -0.036076535 -0.012142051
0.13370438 0.09950389 0.16017479 0.01632675 0.025305746 0.03017765 -0.011441747 0.1349563
-0.121320814 0.024583315 -0.16230409 0.098814644 -0.060669187 0.11529994 0.029048413 -0.1225363
0.019509217 0.07791783 0.11520881 -0.020249544 -0.058045153 0.010758432 -0.015066992 -0.0020809122
0.0025018994 -0.053664453 -0.13231522 -0.0019552885 -0.10412262 0.08615942 -0.005737005 -0.18042344
00000000: 6f76 93bc a2d2 0f3d 69ac 843d a622 6abd
00000010: b80e 71bd fc30 8e3d 9538 a3bd 6158 fd3d
00000020: ac78 a83b ceb5 ec3c d46b e13b 6b0b 183d
00000030: 3cdf 983c 13f0 033d 7fbf 013e e8bb 103e
00000040: 0b64 c93d e92c 883d 83f0 ff3c 2baf 1b3d
00000050: 8425 8a3b 9b3b 8ebd 7bc1 3e3d c4d7 9dbd
00000060: fcf2 afbd 41eb 41be 8503 09be 81fa c03d
00000070: bda3 9fbd 43e9 1c3d d314 cfbd dc4a 75bd
00000080: 99e3 c63d 48ca 4d3d 1afb 643d 9707 953d
00000090: 6398 663c a019 99bd da1c e93c 62d6 9bbd
000000a0: 77ff 85bd c7c7 e2bd 4171 11be e4c4 913d
000000b0: a181 99bd 82f6 5d3d 1dc3 b9bd fca8 b2bd
000000c0: 7655 afbd cd4c 583e c9b9 903e d749 bfbd
000000d0: c470 41bd 3989 073e 8901 debd efb6 803e
000000e0: 6e03 fe3c 8cc7 2abe e35b 263d 1636 e8bd
000000f0: fd94 a8bd ab62 693e a0cd 013e 1870 743d
00000100: 5fac e7bc 1fff 143e 23d6 223e 2c45 95bd
00000110: 72cc c6bd 2539 3a3e b258 153d 1d3f efbd
00000120: e6e6 b03c 15cd 11be c396 f6bd 1956 eb3d
00000130: df78 2f3e bce6 363e 4542 6dbc 6d7a 28be
00000140: 5504 40bd 4e48 4abd def3 83bd 7218 cfbc
00000150: 849c 23be 3f51 093d 108c 53bd acd5 dfba
00000160: b38b 693d ffec 583c f751 04bc cdff 1cbd
00000170: 8bfd 61bc dce9 ba3b 79e5 933c fe39 693d
00000180: f3cd 563d 8dcd 913c 8a34 6a3d 854f 1e3c
00000190: f76e 5abd e898 453d 836e 85bc bd41 e73d
000001a0: 4513 25bd af47 573d ffca e0bd e1fd e1bc
000001b0: 5762 c5bc 5645 3a3c 679c d23c 64d6 82bd
000001c0: 208b ebbd 34de ee3c 7565 5f3c f227 b0bc
000001d0: 7a86 18be 7ccf b53d 044e 16be 7c4e fb3e
000001e0: 0da3 c03d e72e 563e c387 08be 8bfe 97be
000001f0: 1b24 0f3e 8e9a 9bbc b971 143e 16bf 1bbe
00000200: d278 dbbc f4df 863d 779e 9d3d 2708 8dbd
00000210: 4bcb 97bd bde0 603d 0e5c 5cbd 8c06 1e3e
00000220: 18be 803c c68c 2e3c 2bd6 c5bc dc28 95bb
00000230: 06e4 c23a 13f4 853d 5e58 493d b4af 8f3b
00000240: 0e65 9dbd 38f5 283e 958a c23d 020e ca3d
00000250: 7959 623e 376b fdbd 4e6b 97bd 6177 503e
00000260: 2891 983d 706f a63e 212f 5b3d ec44 973b
00000270: 6556 a1be dd4e da3e 8c0e 463e 5fb0 29bc
00000280: fbf2 a43c fdfa 2f3d 1bde 923d 14d5 eebc
00000290: b813 da3c f258 01bd 0ab2 ff3c 0778 3cba
000002a0: c5d6 98bc e21a 6ebd 8d65 eabd 23fb 863d
000002b0: 7a02 99bc ce11 75bc 4bce 44bd 795d d5bd
000002c0: c8e6 1c3c 2a20 523d ec41 ab3c 1884 403d
000002d0: 0e2a aa3c 919b 5a3d ac63 a8bd 7ff6 5f3d
000002e0: 5cff dcbc b7e3 edbc 3919 11bd a75d 493c
000002f0: fe23 c83c 78a7 b13d 5056 ab3d 3f8a 073c
00000300: d952 403d 21ef b1bd fc58 eebd 371d 4d3d
00000310: 656d 343d ec79 92bc 65d2 1a3b a277 24be
00000320: f5fc 9bbc d37a 96bd d3d1 f8bd cbf8 973d
00000330: 6735 a93d b990 acbd 8686 01bd 2230 a8bd
00000340: 50ba a23d 6cb2 2c3c 3d9a 71bc 678c c03d
00000350: 8d43 633d 464f d5bc 5a23 333d ace4 19be
00000360: aa8a 3abd 59cb a8bb 4a37 95bd d8f0 743d
00000370: f0f8 ff3c 1471 00bd fdc4 13bd 74ef 46bc
00000380: cde9 083e b2c8 cb3d dc04 243e adbf 853c
00000390: ff4d cf3c 1e37 f73c 2a76 3bbc fc31 0a3e
000003a0: 0c77 f8bd f362 c93c 0b33 26be 555f ca3d
000003b0: 4180 78bd 6022 ec3d f0f6 ed3c 50f4 fabd
000003c0: cbd1 9f3c 6293 9f3d 99f2 eb3d 5fe2 a5bc
000003d0: c1c0 6dbd 2244 303c 8bdb 76bc ea5f 08bb
000003e0: e8f6 233b 42cf 5bbd a47d 07be 4c24 00bb
000003f0: 3d3e d5bd 5a74 b03d 7cfd bbbb ecc0 38be

lstm.bias_ih_l0 f4 [64]
0.23281786 0.28799203 0.32286936 -0.044022486 0.46539655 0.24948423 0.2838169 0.15434124
0.11938062 0.130341 0.13365656 0.3389307 0.13307598 0.12734134 0.14928907 0.41059092
-0.3569967 -0.4072739 -0.37628967 -0.22768031 -0.27727297 -0.2854725 -0.14815997 -0.15188675
-0.24935974 -0.02684931 0.03437179 -0.3397763 -0.103752 -0.07369784 -0.1388531 -0.27875587
-0.40380841 -0.5876731 -0.5991389 -0.62447244 -0.48124596 -0.12610951 -0.44752726 0.41519663
0.49846143 0.12476031 0.17493919 -0.47397208 0.48055926 -0.83904326 0.47387806 -0.16256015
0.3328706 0.2804869 0.21625637 0.121220015 0.6296163 0.14186423 0.1627335 0.3075479
0.23184904 -0.32518792 0.39568147 0.37700328 -0.17070638 -0.13921283 0.23907784 0.30166963
00000000: ce67 6e3e b173 933e 224f a53e ec50 34bd
00000010: 7548 ee3e cb78 7f3e 7350 913e a10b 1e3e
00000020: d47d f43d 1c78 053e 44dd 083e 5388 ad3e
00000030: 1245 083e c565 023e 3cdf 183e f938 d23e
00000040: 45c8 b6be 3486 d0be 0aa9 c0be 0725 69be
00000050: b9f6 8dbe 7429 92be 3fb7 17be 3388 1bbe
00000060: 2958 7fbe 16f3 dbbc 6fc9 0c3d 29f7 adbe
00000070: ee7b d4bd e5ee 96bd 822f 0ebe 17b9 8ebe
00000080: fabf cebe bf71 16bf 2b61 19bf 6ddd 1fbf
00000090: df65 f6be da22 01be 4b22 e5be a794 d43e
000000a0: 5636 ff3e 5582 ff3d 4223 333e 78ac f2be
000000b0: dd0b f63e 8acb 56bf 25a0 f23e 2b76 26be
000000c0: 046e aa3e fb9b 8f3e 4f72 5d3e 3342 f83d
000000d0: 892e 213f db44 113e 9ca3 263e eb76 9d3e
000000e0: d669 6d3e 087f a6be c396 ca3e 9306 c13e
000000f0: a7cd 2ebe cf8d 0ebe d2d0 743e 7174 9a3e

lstm.bias_hh_l0 f4 [64]
0.23281887 0.28799668 0.32287073 -0.04378508 0.4653754 0.24948384 0.283817 0.15120406
0.11936691 0.1297039 0.1337009 0.33891532 0.13307607 0.12734337 0.14931172 0.41056085
-0.35699666 -0.40727365 -0.37629005 -0.22768027 -0.2772755 -0.28547233 -0.14815997 -0.15189058
-0.24935962 -0.026980601 0.033726726 -0.33977535 -0.10367941 -0.07321147 -0.13885237 -0.27862367
-0.4861753 -0.5217853 -0.56519324 -0.44232598 -0.42797175 -0.11792277 -0.46132296 0.3944638
0.47316828 0.094531745 0.20070226 -0.3708009 0.51346296 -0.8188974 0.43805134 -0.12985848
0.3328651 0.280571 0.21587257 0.12119298 0.62934697 0.14190939 0.16273025 0.30576757
0.23185581 -0.32520217 0.39565733 0.37706622 -0.17070875 -0.13921243 0.23912516 0.30175638
00000000: 1268 6e3e 4d74 933e 504f a53e fc57 33bd
00000010: af45 ee3e b178 7f3e 7650 913e 3dd5 1a3e
00000020: a376 f43d 19d1 043e e4e8 083e 4f86 ad3e
00000030: 1845 083e 4d66 023e 2ce5 183e 0835 d23e
00000040: 44c8 b6be 2c86 d0be 17a9 c0be 0425 69be
00000050: 0ef7 8dbe 6e29 92be 3fb7 17be 3489 1bbe
00000060: 2158 7fbe 6c06 ddbc 0925 0a3d 09f7 adbe
00000070: df55 d4bd e5ef 95bd 512f 0ebe c3a7 8ebe
00000080: f8eb f8be b993 05bf 81b0 10bf 8d78 e2be
00000090: 1d1f dbbe 7e81 f1bd 8632 ecbe 29f7 c93e
000000a0: 1d43 f23e dc99 c13d e584 4d3e 9ed9 bdbe
000000b0: 4f72 033f 43a3 51bf 4448 e03e 9ff9 04be
000000c0: 4b6d aa3e 01a7 8f3e b30d 5d3e 0634 f83d
000000d0: e21c 213f b250 113e c2a2 263e 918d 9c3e
000000e0: 9c6b 6d3e e680 a6be 9993 ca3e d30e c13e
000000f0: 46ce 2ebe b48d 0ebe 3add 743e d07f 9a3e

lstm.weight_ih_l1 f4 [64, 16]
-0.0076238173 0.009633312 0.020211563 0.0058808275 0.017343689 -0.024072137 -0.0010044507 -0.007148902
-0.0028571237 -0.015469788 0.04316336 0.0077051017 -0.04171407 0.04726376 -0.013727302 0.06349193
-0.0038996746 0.001140491 0.0008416217 -0.0027890191 -0.0016147804 -0.010277865 0.00392702 0.00076612085
0.001678392 0.0011091487 0.04243828 -0.0033867548 0.005740452 0.0010833213 0.003599118 0.04873511
-0.020275073 0.47443125 0.4900571 -0.0989706 -0.07594462 0.23461452 -0.021068972 -0.15150174
0.105942994 -0.36544496 0.12788782 -0.01931563 -0.39941743 0.22052829 -0.017620647 -0.042826205
-0.037403032 -0.0065967063 0.010024992 -0.015841305 -0.03006761 -0.003421388 0.008252686 -0.017065542
0.024060005 -0.08001048 0.077470586 -0.046890017 -0.02317861 0.042745385 -0.01227349 0.08409186
-0.024007177 -0.0069533726 -0.0026202856 -0.010973512 -0.007051778 -0.0006407413 -0.0031853102 -0.012577455
0.014955585 -0.051484805 0.059712827 -0.027213778 -0.0033896184 0.031782355 -0.003836572 0.07874422
-0.003946259 -0.0002199824 -0.00044006735 -0.0034643253 -0.0010880196 -0.0074202255 0.004036832 -0.0025105083
0.0011260173 -0.0005784761 0.038630582 -0.0032396154 0.0021792909 0.002053222 0.0014360312 0.042567037
-0.0104367705 0.0398479 0.0059092813 -0.004450013 -0.11390425 0.08842374 -0.028964585 0.047296103
0.051741656 -0.09413991 -0.1320289 -0.024574619 -0.25374162 0.15581241 -0.15741727 0.11010446
-0.006981553 0.024406036 0.05331107 0.040499453 0.04299195 -0.025070123 0.013879015 -0.026775183
-0.00835044 -0.035937298 0.025525609 0.02525604 -0.09766317 0.10218511 -0.039807834 0.08650653
-0.058644366 -0.0036439493 0.01738904 -0.017901098 -0.04397661 -0.008491771 0.011972655 -0.012993552
0.041972093 -0.11539821 0.106996186 -0.064947665 -0.04037848 0.075614214 -0.013126577 0.11080468
-0.031047044 0.07320043 0.08438637 0.0015378349 0.097967856 0.02913249 0.06210268 -0.18776424
0.010939749 -0.23044156 -0.0030767277 0.038046513 -0.202071 0.03984897 -0.21120925 -0.2366202
-0.0049629933 -0.0017990016 0.0017130128 -0.0015826111 -0.0036388722 0.004118133 -0.007858091 0.0026536467
0.000825024 -0.011938376 0.027129669 -0.005163936 -0.0045300717 0.009127822 0.0010729253 0.028192146
-0.094462544 -0.008041086 0.03897306 -0.04546648 -0.0351223 0.024071107 0.00337639 0.01852031
0.064098634 -0.026686806 0.11540712 -0.09957153 -0.03617869 0.079720534 0.034746457 0.14160396
-0.03793063 0.0008321993 0.05001647 -0.012178318 -0.023498835 0.004277624 0.0321651 -0.029651947
0.016486289 -0.04298654 0.05079312 -0.026861047 -0.019879738 0.061786346 -0.016231982 0.07134723
-0.13838601 0.38124588 0.4714936 -0.31223524 -0.03720117 0.19867104 -0.19309416 0.45947042
0.21200806 -0.12803116 -0.1284675 -0.1943255 -0.5178911 0.5206595 0.09601215 -0.13578796
-0.0143902395 0.010819137 0.017693372 -0.0015198281 0.011065678 -0.00023946205 -0.00898064 -0.0039934893
-0.000341426 -0.041100636 0.0693926 -0.024545986 -0.01974512 0.042985514 0.0012511649 0.0894104
-0.027513897 -0.012711168 -0.010736472 -0.017303025 -0.016890641 0.00081805757 -4.9326103e-05 -0.010646849
0.01883527 -0.049749553 0.0595102 -0.027898666 -0.001999816 0.018999755 -0.0036955387 0.06785246
00000000: 37d1 f9bb 0ad5 1d3c b892 a53c f5b3 c03b
00000010: 5a14 8e3c ee32 c5bc c6a7 83ba 5641 eabb
00000020: 953e 3bbb fe74 7dbc 10cc 303d 147b fc3b
00000030: 5fdc 2abd a597 413d 7ae8 60bc 0f08 823d
00000040: af91 7fbb 877c 953a 47a0 5c3a fac7 36bb
00000050: 0aa7 d3ba 7e64 28bc 3bae 803b 80d5 483a
00000060: 7dfd db3a db60 913a c3d3 2d3d 51f4 5dbb
00000070: 671a bc3b 3bfe 8d3a 2edf 6b3b 779e 473d
00000080: e917 a6bc a7e8 f23e c4e8 fa3e 19b1 cabd
00000090: da88 9bbd ca3e 703e d698 acbc 4623 1bbe
000000a0: a4f8 d83d 9a1b bbbe 06f5 023e d03b 9ebc
000000b0: 7180 ccbe 2bd2 613e 2d59 90bc 886a 2fbd
000000c0: ec33 19bd 2f29 d8bb dd3f 243c a0c5 81bc
000000d0: 5950 f6bc 5e39 60bb 4636 073c 09cd 8bbc
000000e0: 7d19 c53c 89dc a3bd e6a8 9e3d bf0f 40bd
000000f0: 11e1 bdbc c915 2f3d c016 49bc 5a38 ac3d
00000100: b3aa c4bc 1ed9 e3bb 19b9 2bbb 3fca 33bc
00000110: 9a12 e7bb 6cf7 27ba a3c0 50bb ab11 4ebc
00000120: 4508 753c bbe1 52bd 7095 743d 6eef debc
00000130: 5c24 5ebb 372e 023d ff6e 7bbb a644 a13d
00000140: 9f4f 81bb 13ab 66b9 d7b8 e6b9 bc09 63bb
00000150: e19b 8eba 5d25 f3bb 6747 843b 5787 24bb
00000160: df96 933a e0a4 17ba 1a3b 1e3d ba4f 54bb
00000170: 6fd2 0e3b 598f 063b 3639 bc3a c65a 2e3d
00000180: fdfe 2abc 8d37 233d a5a2 c13b 6ad1 91bb
00000190: a246 e9bd 8117 b53d 2347 edbc 8fb9 413d
000001a0: 0fef 533d 6dcc c0bd 9532 07be b650 c9bc
000001b0: 6cea 81be 4a8d 1f3e fe31 21be 727e e13d
000001c0: 83c5 e4bb 2bef c73c b55c 5a3d c1e2 253d
000001d0: 5418 303d dc5f cdbc cf64 633c a157 dbbc
000001e0: 49d0 08bc fd32 13bd 151b d13c c1e5 ce3c
000001f0: a103 c8bd 6d46 d13d 8a0d 23bd 562a b13d
00000200: 1335 70bd 53cf 6ebb 7673 8e3c 53a5 92bc
00000210: d120 34bd 1221 0bbc f428 443c e8e2 54bc
00000220: eeea 2b3d e655 ecbd d120 db3d 4803 85bd
00000230: e863 25bd a0db 9a3d db10 57bc 90ed e23d
00000240: 5f56 febc 1bea 953d c3d2 ac3d 2d91 c93a
00000250: 5fa3 c83d 42a7 ee3c 615f 7e3d 4545 40be
00000260: a23c 333c dff8 6bbe eda2 49bb a9d6 1b3d
00000270: b3eb 4ebe ac38 233d 3d47 58be 914c 72be
00000280: 9ba0 a2bb 7acc ebba 2c87 e03a 9e6f cfba
00000290: 257a 6ebb 67f1 863b 39bf 00bc cee8 2d3b
000002a0: 6c46 583a 2e99 43bc 0a3f de3c 3c36 a9bb
000002b0: ff70 94bb dc8c 153c 66a1 8c3a 37f3 e63c
000002c0: 9475 c1bd c2be 03bc 37a2 1f3d 0f3b 3abd
000002d0: 67dc 0fbd c530 c53c 6d46 5d3b e8b7 973c
000002e0: 2546 833d 4a9e dabc 915a ec3d 29ec cbbd
000002f0: 1b30 14bd 8544 a33d 4d52 0e3d a100 113e
00000300: 265d 1bbd f327 5a3a 12de 4c3d 9187 47bc
00000310: a180 c0bc 502b 8c3b 8dbf 033d a4e8 f2bc
00000320: 410e 873c a712 30bd 720c 503d b30b dcbc
00000330: d5da a2bc ae13 7d3d eff8 84bc 7f1e 923d
00000340: 10b5 0dbe a932 c33e 9c67 f13e 4cdd 9fbe
00000350: 4160 18bd 6c70 4b3e 7aba 45be b53f eb3e
00000360: a418 593e 9a1a 03be fc8c 03be 44fd 46be
00000370: 8394 04bf f149 053f 05a2 c43d 000c 0bbe
00000380: 0ac5 6bbc c042 313c b1f1 903c f834 c7ba
00000390: d14c 353c 1b18 7bb9 8923 13bc d1db 82bb
000003a0: 6c01 b3b9 2459 28bd b51d 8e3d aa14 c9bc
000003b0: 85c0 a1bc 9411 303d 21fe a33a cd1c b73d
000003c0: d364 e1bc 8142 50bc 07e8 2fbc 13bf 8dbc
000003d0: 3e5e 8abc ea72 563a 80e3 4eb8 1f70 2ebc
000003e0: 6d4c 9a3c 30c6 4bbd f8c0 733d be8b e4bc
000003f0: 580f 03bb 60a5 9b3c da30 72bb 3bf6 8a3d

lstm.weight_hh_l1 f4 [64, 16]
0.002037249 -0.0015025857 0.03275041 0.0024815907 -0.0007989649 -0.00038958457 -0.014484806 -0.0006023245
0.0035760752 0.013134503 0.000712974 0.00034953968 0.0037448374 -0.03307065 -0.0009908092 0.00096975657
0.0006034648 -0.00027673342 0.038679805 -0.0019778456 0.0018237566 -0.00014369262 0.0029235594 -1.2191391e-05
-0.00017885673 0.027288396 0.0005021699 0.002864729 -0.0015806806 -0.0031640758 -0.0017591843 -0.0016153279
-0.1321139 0.003588539 0.47859144 -0.0733155 0.0526944 -0.0007452657 0.14877027 -0.17743175
-0.07393545 0.26943195 0.01002569 0.02299634 -0.02916131 0.37492412 -0.025749216 -0.060465112
-0.0058109392 0.00049603276 0.07205333 0.002119625 -0.0026476956 0.0007357464 0.011440954 -0.011611257
0.0031553032 0.06650779 -0.004665415 -0.0011844691 0.0027917626 9.7202195e-05 0.0012481613 0.0024277447
-0.0032821668 -0.0010382809 0.066298075 0.0027409198 -0.0037414187 0.00017077988 0.0035759108 -0.007112366
0.00025591342 0.047611848 -0.0010719395 -0.004937098 0.001383332 -0.0064847153 -0.0018085376 0.0028252352
0.0007234518 -0.00012522373 0.032122977 -0.0006961856 0.0007138987 -6.3618005e-05 0.0017778092 0.00023356905
5.138838e-05 0.02344691 0.00033446006 0.000387642 -0.0011557424 -0.0023919286 -0.00115123 -0.00074342394
-0.01594076 0.0023866966 0.06888531 0.012124013 -0.008931698 -0.00022876251 -0.08911944 -0.016698642
0.013993118 -0.12476894 0.011442417 -0.026679458 0.004395318 -0.053497028 -0.00068836776 0.010644096
-0.0045258366 -0.0031505355 0.04012177 0.0045060595 -0.002075075 -0.0042932574 -0.024655182 -0.010701798
0.008882834 0.0106226895 0.00086826313 0.005787652 0.019784627 -0.06604409 -0.0084756045 0.0020787737
-0.0004926339 0.0010430715 0.10520168 0.0050877836 -0.001992236 0.00063686003 0.009092265 -0.012758507
0.0027413266 0.0953819 -0.00622853 0.0015935793 -0.011707565 -0.007439594 -0.0015645946 0.0021814057
0.036330312 0.009646123 -0.21053278 -0.03479636 0.014870828 0.010418165 -0.1903084 0.06849482
-0.045953143 -0.26789972 -0.0131012 0.04679662 0.030343944 -0.21739323 -0.0073786546 -0.017958486
-0.00034956518 -3.0158959e-05 0.018488497 -0.0007297932 0.0006901968 0.00012230776 0.0033414736 -0.0016545038
-0.0003434062 0.014496237 0.00091376086 0.0002821539 -0.001836812 -0.005226298 -0.00086301233 -0.00061911624
-0.0016518133 0.0018018004 0.13247278 -0.0022648498 0.0029080384 -0.001784027 0.026624609 -0.020693678
0.0022911197 0.106310196 0.0023216293 -0.011736599 -0.0010847982 6.144494e-05 0.00779868 -0.0023874142
-0.007497576 0.0048652785 0.057713803 -0.0136112 0.0038863532 0.0062463046 0.016912514 -0.015696682
-0.0125245685 0.055301454 0.0071060765 0.011455312 0.015252987 -0.010135904 -0.0021234532 -0.004858445
0.047340807 -0.029114358 0.036168773 -0.012092281 0.023920277 -0.038543284 -0.46321365 0.0999094
0.007034147 -0.26226652 0.017008163 -0.05110093 0.025177589 -0.1582152 -0.056406084 -0.022100024
-0.0013462537 0.0006762875 0.07629039 0.0012628862 -0.000748143 -7.532284e-05 0.003016577 -0.004840482
0.00013441883 0.05373762 0.0019826388 -0.009298803 -0.00046121783 -0.014635465 0.0025819696 0.00083063496
-0.0064547993 -0.0001251399 0.05782623 0.003074038 -0.003609392 -0.00037048094 0.008739993 -0.009618141
0.0022047882 0.04734507 -0.0023292357 -0.0017826764 0.004587544 0.008337271 6.248454e-05 0.003337543
00000000: 5e83 053b 69f2 c4ba 4b25 063d 2fa2 223b
00000010: a071 51ba 2841 ccb9 ae51 6dbc 50e5 1dba
00000020: 965c 6a3b 1932 573c e0e6 3a3a 6c42 b739
00000030: f26b 753b 1775 07bd 0ade 81ba 4337 7e3a
00000040: d631 1e3a 8816 91b9 b76e 1e3d be9e 01bb
00000050: 1e0b ef3a 32ac 16b9 3099 3f3b a089 4cb7
00000060: 7d8b 3bb9 ea8b df3c 0da4 033a 2dbe 3b3b
00000070: d72e cfba 625c 4fbb 6e94 e6ba 69b9 d3ba
00000080: de48 07be b22d 6b3b f009 f53e 7026 96bd
00000090: 15d6 573d ef5d 43ba 3c57 183e abb0 35be
000000a0: 786b 97bd fcf2 893e cb42 243c d262 bc3c
000000b0: b3e3 eebc 0ef6 bf3e 05f0 d2bc 44aa 77bd
000000c0: b169 bebb 3208 023a b290 933d 68e9 0a3b
000000d0: f684 2dbb 1bdf 403a d772 3b3c 243d 3ebc
000000e0: 34c9 4e3b 3c35 883d 56e0 98bb 3040 9bba
000000f0: 01f6 363b 08d9 cb38 5899 a33a cc1a 1f3b
00000100: 9f19 57bb ed16 88ba 49c7 873d 01a1 333b
00000110: 9732 75bb 6013 3339 d459 6a3b da0e e9bb
00000120: 1e2c 8639 a404 433d 5280 8cba 61c7 a1bb
00000130: eb50 b53a bc7d d4bb 740c edba 9527 393b
00000140: 07a6 3d3a 7d4e 03b9 6293 033d 3a80 36ba
00000150: ee24 3b3a a86a 85b8 6105 e93a 37ea 7439
00000160: da89 5738 bc13 c03c 785a af39 6e3c cb39
00000170: 487c 97ba e7c1 1cbb dee4 96ba 56e2 42ba
00000180: 3296 82bc 206a 1c3b be13 8d3d cca3 463c
00000190: 4256 12bc f8df 6fb9 4184 b6bd 97cb 88bc
000001a0: 6443 653c dc86 ffbd fa78 3b3c e18e dabc
000001b0: 9a06 903b b31f 5bbd 9473 34ba 9364 2e3c
000001c0: 784d 94bb 3779 4ebb ba56 243d 91a7 933b
000001d0: fbfd 07bb 74ae 8cbb aaf9 c9bc 9856 2fbc
000001e0: 4e89 113c ca0a 2e3c 279c 633a 58a6 bd3b
000001f0: 5f13 a23c 2042 87bd 43dd 0abc 093c 083b
00000200: 1a24 01ba acb7 883a fa73 d73d 6cb7 a63b
00000210: 2c90 02bb f4f2 263a b9f7 143c 0f09 51bc
00000220: d4a7 333b 9657 c33d b218 ccbb a6df d03a
00000230: 16d1 3fbc d6c7 f3bb 1513 cdba eaf5 0e3b
00000240: 18cf 143d c60a 1e3c e895 57be a186 0ebd
00000250: c6a4 733c f3b0 2a3c 35e0 42be 0347 8c3d
00000260: 5d39 3cbd 272a 89be 6aa6 56bc d0ad 3f3d
00000270: dd93 f83c 559c 5ebe a4c8 f1bb ad1d 93bc
00000280: d845 b7b9 dffd fcb7 3075 973c 984f 3fba
00000290: 53ee 343a bd3f 0039 a0fc 5a3b efdb d8ba
000002a0: 330b b4b9 a081 6d3c 7489 6f3a 0eee 9339
000002b0: 2fc1 f0ba 5d41 abbb c73b 62ba 304c 22ba
000002c0: a881 d8ba 642a ec3a f2a6 073e e06d 14bb
000002d0: ca94 3e3b 03d6 e9ba da1b da3c ca85 a9bc
000002e0: 9c26 163b 29b9 d93d 7a26 183b dd4a 40bc
000002f0: ca2f 8eba 00dc 8038 128c ff3b 2a76 1cbb
00000300: 3aae f5bb ea6c 9f3b 4f65 6c3d 8301 5fbc
00000310: 30b2 7e3b cdad cc3b 1d8c 8a3c 5496 80bc
00000320: d933 4dbc c783 623d 17da e83b 10af 3b3c
00000330: aae7 793c 1011 26bc a229 0bbb 9733 9fbb
00000340: 6fe8 413d 3c81 eebc b525 143d b41e 46bc
00000350: 75f4 c33c 90df 1dbd 572a edbe 4d9d cc3d
00000360: b47e e63b cc47 86be b454 8b3c 354f 51bd
00000370: 3b41 ce3c 2a03 22be 110a 67bd 1c0b b5bc
00000380: c774 b0ba e348 313a 233e 9c3d 6e87 a53a
00000390: 071f 44ba a4f6 9db8 c4b1 453b e89c 9ebb
000003a0: c8f2 0c39 fb1b 5c3d 29ef 013b 025a 18bc
000003b0: 9ccf f1b9 97c9 6fbc 4336 293b f8be 593a
000003c0: c882 d3bb fc37 03b9 32db 6c3d cd75 493b
000003d0: 8d8b 6cbb 1c3d c2b9 3032 0f3c 6895 1dbc
000003e0: 357e 103b e7ec 413d 17a6 18bb b2a8 e9ba
000003f0: 1c53 963b 0d99 083c 220a 8338 aeba 5a3b

lstm.bias_ih_l1 f4 [64]
-0.11402179 -0.096140526 0.17091835 -0.13845782 -0.14013113 -0.08062376 0.04422624 -0.13218309
-0.1989898 0.19653802 -0.063425876 -0.22406901 -0.107822396 0.15694499 -0.18400332 -0.112765156
-0.06920424 -0.0547225 0.18423228 -0.09811609 -0.09783228 -0.046481624 -0.18652947 -0.07814635
-0.14953427 -0.2163773 -0.040367693 -0.18000168 -0.09599654 -9.253342e-05 -0.12201211 -0.07651636
0.0077292654 -0.00040375552 -0.086854376 0.039419595 -0.023998521 0.0068747937 -0.0269366 0.033804927
0.025781829 0.06716105 -0.0023730404 -0.01661895 0.016269004 0.19550991 0.021710085 0.035086386
-0.17407784 -0.09884263 0.8237998 -0.14052133 -0.1398818 -0.083177544 -0.11859018 -0.31604585
-0.19182412 0.09037288 -0.06408499 -0.22359784 -0.09635925 0.4943056 -0.18592517 -0.11309437
00000000: 4284 e9bd 53e5 c4bd 3805 2f3e e3c7 0dbe
00000010: 897e 0fbe 121e a5bd 9326 353d 015b 07be
00000020: fbc3 4bbe 4341 493e 6de5 81bd 5972 65be
00000030: fdd1 dcbd 30b6 203e 5e6b 3cbe 6bf1 e6bd
00000040: f4ba 8dbd b324 60bd 63a7 3c3e 17f1 c8bd
00000050: 4a5c c8bd 8463 3ebd 9501 3fbe 320b a0bd
00000060: 831f 19be 0392 5dbe 9858 25bd 5c52 38be
00000070: d599 c4bd 800e c2b8 7ce1 f9bd 9cb4 9cbd
00000080: c745 fd3b 26af d3b9 b5e0 b1bd 7176 213d
00000090: 8c98 c4bc f345 e13b 25aa dcbc 0977 0a3d
000000a0: 6a34 d33c bc8b 893d 0385 1bbb 7724 88bc
000000b0: 9346 853c c033 483e 59d9 b13c beb6 0f3d
000000c0: 7641 32be 016e cabd 8be4 523f d3e4 0fbe
000000d0: 2d3d 0fbe fd58 aabd 69df f2bd c3d0 a1be
000000e0: 8b6d 44be 6b15 b93d fe3e 83bd d5f6 64be
000000f0: 0058 c5bd a015 fd3e 2b63 3ebe 059e e7bd

lstm.bias_hh_l1 f4 [64]
-0.1141419 -0.096140526 0.2014285 -0.13845782 -0.14013113 -0.08062376 0.046182618 -0.13293467
-0.1989898 0.17273629 -0.063425876 -0.22406901 -0.10781229 0.13983499 -0.18400332 -0.112765156
-0.069106996 -0.0547225 0.12291151 -0.09811609 -0.09783228 -0.046481624 -0.18083683 -0.07857574
-0.14953427 -0.23142858 -0.04036769 -0.18000168 -0.09599679 -0.006394509 -0.12201211 -0.07651636
-0.009208638 -0.00040424333 -0.18882756 0.03941965 -0.024006236 0.006875531 -0.03384107 -0.01300041
0.025783775 0.033775542 -0.0024991676 -0.016617088 0.015866106 0.0996942 0.021714566 0.035083417
-0.17616259 -0.09884263 0.8108779 -0.14052133 -0.1398818 -0.083177544 -0.12169343 -0.30122852
-0.19182412 0.09808784 -0.064084984 -0.22359784 -0.097067535 0.4871432 -0.18592517 -0.11309437
00000000: 3ac3 e9bd 53e5 c4bd 4643 4e3e e3c7 0dbe
00000010: 897e 0fbe 121e a5bd fc29 3d3d 0720 08be
00000020: fbc3 4bbe c8e1 303e 6de5 81bd 5972 65be
00000030: b1cc dcbd e730 0f3e 5e6b 3cbe 6bf1 e6bd
00000040: f887 8dbd b324 60bd 08b9 fb3d 17f1 c8bd
00000050: 4a5c c8bd 8463 3ebd 4a2d 39be 51ec a0bd
00000060: 831f 19be 9dfb 6cbe 9758 25bd 5c52 38be
00000070: f799 c4bd 0889 d1bb 7ce1 f9bd 9cb4 9cbd
00000080: d4df 16bc 9ff0 d3b9 035c 41be 8076 213d
00000090: baa8 c4bc 224c e13b ef9c 0abd acff 54bc
000000a0: 7f38 d33c 3958 0a3d 13c9 23bb 8f20 88bc
000000b0: a3f9 813c 792c cc3d bfe2 b13c a1b3 0f3d
000000c0: f763 34be 016e cabd b295 4f3f d3e4 0fbe
000000d0: 2d3d 0fbe fd58 aabd 683a f9bd a03a 9abe
000000e0: 8b6d 44be 47e2 c83d fd3e 83bd d5f6 64be
000000f0: 58cb c6bd d56a f93e 2b63 3ebe 059e e7bd

fc.weight f4 [1, 16]
0.073781125 -0.0040504904 -0.9782322 -0.008613305 0.01107942 -0.0073062107 -0.38465747 0.17569162
0.0011606504 -0.8252884 -0.010071617 0.020717783 0.022391912 -0.75613683 -0.015740007 -0.016032828
00000000: 8f1a 973d fab9 84bb 6d6d 7abf d21e 0dbc
00000010: 7586 353c f068 efbb d3f1 c4be 81e8 333e
00000020: f720 983a 1a46 53bf 6c03 25bc 57b8 a93c
00000030: 3e6f b73c 2f92 41bf 30f1 80bc 4757 83bc
