examples/timeseries/lstm/full_lstm_model.pth (torch, 21957 bytes, 9 tensors)

weight_ih_l0 f4 [64, 12]
0	0xbc4c747e	-0.012478946
1	0x3ddd1636	0.10795252
2	0x3e4cee70	0.20012832
3	0x3d21cd5a	0.03950248
4	0xbaa293f6	-0.0012403715
5	0x3d07ffcd	0.033202935
6	0x3ee30be2	0.44345003
7	0xbe260154	-0.16211444
8	0x3d283585	0.041066665
9	0x3e055d61	0.13023902
10	0xbc4b60ce	-0.012413217
11	0x3dc9bc14	0.09850326
12	0xbd86f5c0	-0.06589842
13	0x3e4cef9c	0.20013279
14	0xbe1bd89b	-0.15219347
15	0xbda90477	-0.08252805
16	0xbe65cb6f	-0.22440885
17	0x3e889e65	0.26683345
18	0x3e61600f	0.220093
19	0xbdadac78	-0.084801614
20	0xbe4078d8	-0.18796098
21	0xbd5dfa41	-0.05419374
22	0x3ce4be3f	0.027922748
23	0x3dd0b1e4	0.1019018
24	0x3d97208c	0.07379255
25	0x3e1f7835	0.15573199
26	0xbd1b9dd5	-0.037992317
27	0xbddf05c8	-0.108897746
28	0x3e314624	0.17311913
29	0x3d8fab95	0.070151486
30	0x3e0c667f	0.13710974
31	0xbd386e8b	-0.045027297
32	0x3d363870	0.044487417
33	0x3df9daa6	0.12199907
34	0x3e5ce9eb	0.21573608
35	0x3e2a3206	0.16620645
36	0x3d60342b	0.05473725
37	0x3e30b1b5	0.1725529
38	0x3c109632	0.008824872
39	0x3db89561	0.09012867
40	0xbe79de4b	-0.24401204
41	0xbe5ff848	-0.21872056
42	0x3efee1e4	0.49781716
43	0x3ce0823e	0.027405854
44	0xbdf0b4dc	-0.11753246
45	0xbe2e41bb	-0.17017262
46	0xbd4607be	-0.048347227
47	0xbe15231f	-0.14564179
48	0xbcc55143	-0.0240866
49	0x3e1e11a7	0.15436421
50	0xbc41d247	-0.011829919
51	0xbd3d61f6	-0.046236
52	0x3e0574a0	0.1303277
53	0x3e63bf57	0.22240959
54	0x3e489522	0.1958814
55	0xbdcc1960	-0.099657774
56	0x3c8aeceb	0.016958674
57	0x3ddc0b7f	0.1074438
58	0xbc5d355e	-0.013501493
59	0x3d32ddcf	0.043668564
60	0xbde8caf4	-0.11366835
61	0xbe284fbf	-0.1643667
62	0xbe81786a	-0.2528718
63	0x3ddbe509	0.10737044
64	0xbd6afdf9	-0.057371113
65	0xbbca8152	-0.006179967
66	0x3dd3f043	0.10348561
67	0x3ca35564	0.019938178
68	0xbe512883	-0.2042561
69	0xbd681eb6	-0.056669913
70	0xbd6b2480	-0.057407856
71	0x3e4596fb	0.19295876
72	0xbe225123	-0.15851264
73	0x3e2b7901	0.16745378
74	0x3e3ec885	0.1863118
75	0xbe9e31ab	-0.3089727
76	0xbe903ad0	-0.2816987
77	0x3cacd29b	0.021096518
78	0x3d88359a	0.06650849
79	0x3de30900	0.11085701
80	0xbda8eeec	-0.08248696
81	0xbe9b18ef	-0.3029246
82	0x3e8d705e	0.27624792
83	0x3eaf80e3	0.3427802
84	0x3e36e64b	0.17861287
85	0x3def3e55	0.11681811
86	0x3e09cabb	0.13456242
87	0x3e234167	0.15942918
88	0x3d8b882e	0.068130836
89	0x3e02e7b5	0.12783702
90	0x3e9a53bb	0.30142006
91	0xbe960e74	-0.29307902
92	0xbc437ad4	-0.01193114
93	0xbe11c0d7	-0.14233719
94	0x3aa8ef0b	0.0012888623
95	0x3dcf2da5	0.10116128
96	0x3c78f177	0.015194288
97	0x3defb5e4	0.11704615
98	0x3e254bfe	0.1614227
99	0xbe1b40e1	-0.15161468
100	0x3e199f0d	0.1500208
101	0x3ea63dec	0.32469118
102	0xbd33073f	-0.043708082
103	0xbd07fd76	-0.033200704
104	0xbc154e5e	-0.0091129225
105	0x3da1b1f0	0.07895267
106	0xbe0c6d07	-0.13713466
107	0x3e5dcd67	0.21660386
108	0x3cabe75c	0.020984344
109	0x3e676d02	0.22600177
110	0xbce49ad2	-0.027905855
111	0x3c260cae	0.010134859
112	0x3d767ed1	0.060179535
113	0x3d49fe01	0.049314503
114	0x3ea4ed95	0.3221251
115	0xbe6fb951	-0.23410536
116	0x3d8da12c	0.06915507
117	0x3cf8f4ec	0.030390225
118	0x3e2e3212	0.17011288
119	0x3e006974	0.12540227
120	0xbcc60832	-0.02417383
121	0x3db9b185	0.09067062
122	0x3d904811	0.070449956
123	0xbda1fd23	-0.0790961
124	0x3d80d087	0.062897734
125	0x3e791810	0.24325585
126	0x3e156f8e	0.14593336
127	0xbe042c04	-0.12907416
128	0xbd293045	-0.0413058
129	0x3e07699a	0.13223878
130	0xbdf20e35	-0.11819116
131	0xbd2183c8	-0.039432317
132	0x3e78862e	0.24269935
133	0x3ddb9d57	0.107233696
134	0xbe1749c2	-0.1477423
135	0xbba355eb	-0.0049846075
136	0x3e0f4ba6	0.13993701
137	0x3e8407ee	0.257873
138	0xbea71a97	-0.32637474
139	0xbcdd9bf2	-0.0270519
140	0xbd2b3f7f	-0.0418086
141	0x3d88b97e	0.06676005
142	0x3a3113ea	0.00067549816
143	0x3e5d3949	0.21603884
144	0xbd311100	-0.043229103
145	0x3d82d679	0.06388564
146	0xbbfdb281	-0.0077422266
147	0xbd698f48	-0.05702141
148	0x3d85bc18	0.06530017
149	0x3eeba207	0.46022055
150	0x3de1172e	0.10990749
151	0xbe1ff44f	-0.1562054
152	0x3dfbde21	0.12298227
153	0xbc8cd2aa	-0.017190296
154	0x3d2b8fb9	0.04188511
155	0x3e59e6ee	0.21279499
156	0x3da095a6	0.07841043
157	0x3e0949dd	0.13407083
158	0xbd20b97a	-0.039239384
159	0xbd18b6f5	-0.037283856
160	0xbe1df7be	-0.15426537
161	0xbc6ab355	-0.014324983
162	0x3d97fe86	0.07421593
163	0xbe3f535c	-0.18684143
164	0xbdc1b780	-0.09458828
165	0xbe0e90b2	-0.13922384
166	0x3ecf1ece	0.4045319
167	0x3e1faadb	0.1559252
168	0x3d52ffef	0.05151361
169	0x3d3c4eb8	0.04597351
170	0x3e096f63	0.13421397
171	0xbc6941e4	-0.014236901
172	0xbdddaaf4	-0.10823622
173	0x3e58112c	0.211003
174	0x3dd32b00	0.10310936
175	0x3e53e357	0.20692192
176	0xbc7b1dd4	-0.015326936
177	0x3ccf161c	0.025279097
178	0xbea5c2b9	-0.32375124
179	0xbe467440	-0.19380283
180	0xbdd3d6f5	-0.10343734
181	0xbd143dd6	-0.036191784
182	0x3dee63e4	0.116401464
183	0x3d835825	0.064132966
184	0xbe622219	-0.2208332
185	0x3e19d170	0.150213
186	0x3cfc6d1c	0.030813746
187	0xbc0f5373	-0.008747923
188	0xbcfebdb1	-0.031096311
189	0x3d8f2a73	0.069905184
190	0x3ea08d9b	0.31358036
191	0xbe72b99c	-0.23703617
192	0x3e605125	0.21905954
193	0x3df4ea11	0.11958707
194	0xbe92f74f	-0.28704306
195	0xbe5bab6b	-0.2145211
196	0x3dc2bf01	0.09509087
197	0x3e1b1a09	0.1514665
198	0x3d133b0b	0.03594498
199	0x3e77576a	0.2415444
200	0x3d4452a9	0.047930393
201	0x3df3245c	0.118721694
202	0x3c8869d7	0.01665203
203	0xbc4fb285	-0.01267684
204	0x3e3af9eb	0.18259399
205	0x3eb4f4da	0.35343057
206	0x3e437cb6	0.19090542
207	0x3dacfadb	0.084462844
208	0x3e28f0a8	0.16498053
209	0x3c9bcb8d	0.019017959
210	0xbbae7e07	-0.005325082
211	0xbd912cc9	-0.0708862
212	0x3c0b3d25	0.008498465
213	0xba1e0159	-0.00060274225
214	0xbe0ccff2	-0.137512
215	0xbdf207c5	-0.11817888
216	0x3da6cfc3	0.08145096
217	0x3c9cde99	0.019149112
218	0xbe419db5	-0.18907817
219	0xbe4e9fdc	-0.20178169
220	0xbc6423f1	-0.013924585
221	0xbe9c978e	-0.30584377
222	0xbe8ad497	-0.27115318
223	0x3e8506b8	0.25981688
224	0x3d127dbb	0.035764437
225	0x3d09c249	0.03363255
226	0x3e3654a9	0.17805733
227	0x3e2eb453	0.17060976
228	0x3c87b7ee	0.016567197
229	0x3e8d7972	0.27631718
230	0x3d14bcc7	0.036312845
231	0x3c19364c	0.009351324
232	0xbda492c4	-0.08035806
233	0xbe817853	-0.25287113
234	0x3d490991	0.04908139
235	0x3e33442f	0.17506479
236	0xbd58206d	-0.0527653
237	0xbde7715c	-0.113009185
238	0xbc062f7c	-0.008190032
239	0xbde8c74c	-0.11366138
240	0xbe161d9e	-0.14659736
241	0xbd847d07	-0.064691596
242	0x3c193f9d	0.0093535455
243	0x3cce54d5	0.025186935
244	0xbe3fe852	-0.18740967
245	0xbe2ba14d	-0.1676075
246	0x3c8f20f6	0.017471772
247	0x3e335d60	0.17516088
248	0x3d6e349e	0.05815565
249	0x3d022298	0.031771272
250	0x3c5212a6	0.012821829
251	0x3bdefccf	0.0068050395
252	0xbdeee206	-0.11664204
253	0xbde44fac	-0.11148009
254	0xbdcfd018	-0.101471126
255	0x3d2f207d	0.042755593

weight_hh_l0 f4 [64, 16]
0	0x3d811cac	0.06304297
1	0xbd495a11	-0.04915816
2	0xbd1d27c2	-0.038367994
3	0xbdada371	-0.084784396
4	0x3dc2f616	0.095195934
5	0x3e0d6d95	0.13811333
6	0xbda39eee	-0.07989298
7	0x3dd9051a	0.10596676
8	0x3de44b4f	0.111471765
9	0xbd1ce269	-0.03830186
10	0x3ddcccde	0.10781263
11	0xbd60807a	-0.054810025
12	0xbd6740a7	-0.05645814
13	0xbd9124ce	-0.07087098
14	0xbdbeede2	-0.09322716
15	0x3e688337	0.22706304
16	0x3d4f9ae1	0.050684813
17	0xbcccd77c	-0.025005095
18	0xbba611e3	-0.00506805
19	0x3c493aa2	0.012282046
20	0x3ce03ebd	0.027373666
21	0x3e367e64	0.17821652
22	0xbd6f6fc6	-0.058456205
23	0x3d8d4f99	0.06899948
24	0x3cec62a9	0.028855639
25	0x3b20a34e	0.00245114
26	0x3d1aef67	0.037825968
27	0xbc9b870f	-0.0189853
28	0xbd34eaa6	-0.04416909
29	0xbd1ec9af	-0.03876656
30	0xbc8821f6	-0.016617756
31	0x3d9195e1	0.07108665
32	0xbc98ce5c	-0.018653087
33	0xbc87ff9e	-0.01660138
34	0x3cbce7e2	0.02305979
35	0xbceff499	-0.029291438
36	0xbac8207a	-0.0015268468
37	0x3e6c54ab	0.23079173
38	0xbcb24b95	-0.021764556
39	0x3d8edb1a	0.06975384
40	0x3cc4a97f	0.024006603
41	0x3cba0eaf	0.02271208
42	0xbc89f0c3	-0.016838437
43	0x3bf20d6d	0.0073868544
44	0x3db6199a	0.08891602
45	0xbda9f70b	-0.08299073
46	0xbdfb2627	-0.12263136
47	0x3e004cc6	0.12529287
48	0x3e1d710c	0.15375155
49	0x3dc9b51b	0.09848996
50	0xbd023afb	-0.03179453
51	0x3e15849f	0.14601372
52	0x3d0df3cb	0.034656327
53	0x3eb86beb	0.36019835
54	0xbe26d1f8	-0.16291034
55	0x3e1084a9	0.14113106
56	0x3d18a384	0.037265316
57	0xbbb601d5	-0.0055544176
58	0xbd64c6ba	-0.055853583
59	0xbd82a39c	-0.06378862
60	0xbcbb9fec	-0.022903405
61	0x3e1cc612	0.15309933
62	0x3dff878c	0.124770254
63	0x3e69f8a3	0.22848754
64	0xbbe3da02	-0.006953479
65	0xbd2dffa2	-0.04248012
66	0x3cc09888	0.023510233
67	0x3c1eae2b	0.00968508
68	0xbcae0be5	-0.021245906
69	0x3e40f4c8	0.18843377
70	0xbd90867a	-0.07056899
71	0x3c21b20c	0.00986911
72	0xbce83e2a	-0.028349955
73	0x3c8e44eb	0.017366847
74	0xbd620b4a	-0.055186547
75	0x3ce167d9	0.027515339
76	0x3d894d3a	0.06704183
77	0xbd2953b4	-0.04133959
78	0xbd8bc004	-0.068237334
79	0x3c5445e8	0.01295612
80	0xbdbd7717	-0.0925123
81	0xbd912219	-0.07086582
82	0x3d8d4bde	0.06899236
83	0xbcb8f741	-0.022578837
84	0xbd591d10	-0.05300623
85	0x3dc71e4e	0.09722577
86	0x3cbb18fc	0.022839062
87	0xbda5d6a0	-0.08097577
88	0xbd81a501	-0.063303
89	0x3daa9c15	0.083305515
90	0xbd9f8bee	-0.07790361
91	0x3c1b0f7e	0.009464143
92	0x3d92b8ae	0.07164131
93	0xbd6e8ab9	-0.058237765
94	0xbd7a655d	-0.061131824
95	0xbb522ca7	-0.0032070072
96	0x3dca3c6a	0.09874804
97	0x3d6bed18	0.057599157
98	0xbcc9a3c1	-0.024614217
99	0xbdbeb582	-0.093119636
100	0x3d1c2bb3	0.038127612
101	0x3dc02c32	0.093834296
102	0x3d20f1f2	0.039293237
103	0x3dfbcd19	0.12294979
104	0xbca22d56	-0.019797008
105	0x3bad7dac	0.0052945223
106	0x3d8f9b0a	0.07011993
107	0x3ddc2498	0.10749167
108	0x3d415bb0	0.04720658
109	0xbe216f45	-0.15765102
110	0x3d0f2137	0.034943786
111	0x3e2788e0	0.16360807
112	0xbc58cd7c	-0.013232585
113	0xbd8e0828	-0.069351494
114	0x3c13e71d	0.00902727
115	0x3bc954b5	0.006144131
116	0x3c5a6360	0.013329357
117	0x3e2fe9b4	0.17178994
118	0xbd25b4e0	-0.0404557
119	0x3c7cb193	0.015423196
120	0x3ca6817e	0.020325419
121	0x3c8b9fdf	0.017044006
122	0x3b843690	0.0040348247
123	0xbcdb227f	-0.026749847
124	0x3c92112a	0.01783045
125	0xbcfaf08f	-0.030632285
126	0xbd599332	-0.053118892
127	0x3c9d8b53	0.019231474
128	0xbd02348c	-0.031788394
129	0xbd452f2b	-0.048140686
130	0x3d5ce81b	0.05393229
131	0x3d72972f	0.05922621
132	0xbc8a2b99	-0.016866492
133	0x3dcf7c39	0.101311155
134	0x3c97e953	0.018543875
135	0xbc669e5c	-0.014075842
136	0xbceda107	-0.029007448
137	0xbadf2d7d	-0.0017027106
138	0xbd79440b	-0.060855906
139	0x3d304b78	0.043040723
140	0x3d576800	0.052589417
141	0xbcc3fc69	-0.02392407
142	0xbc81f72f	-0.015864937
143	0x3c9e9598	0.019358441
144	0xbd75eeca	-0.06004218
145	0xbca6a6e6	-0.020343255
146	0x3cf0a123	0.029373711
147	0x3dda12fc	0.10648152
148	0xbd3aae6d	-0.0455765
149	0x3e3cee10	0.18450189
150	0xbd470514	-0.048588827
151	0xbcf84ddc	-0.030310564
152	0xbd39ab09	-0.045329127
153	0x3d4f8a89	0.050669227
154	0xbd76f9d8	-0.060296863
155	0x3c388bc2	0.01126379
156	0x3dc5c7e4	0.09657267
157	0x3c50be85	0.012740736
158	0xbd7ac6b7	-0.061224665
159	0x3da6ff1d	0.08154128
160	0xbdb2a36e	-0.08722578
161	0xbe0a9cd2	-0.13536385
162	0x3dc6ea68	0.09712678
163	0xbc8ea9a8	-0.017414883
164	0xbd957db2	-0.07299365
165	0x3dd704f2	0.1049899
166	0xbd36acf8	-0.04459855
167	0xbdacd196	-0.08438413
168	0xbd1ceceb	-0.03831188
169	0x3da9a7d6	0.08283965
170	0xbe020b1b	-0.12699549
171	0x3d0feab3	0.035135936
172	0x3dbbd197	0.091708355
173	0xbd901a67	-0.07036286
174	0xbe0ec44e	-0.13942072
175	0x3c8c06e1	0.017093124
176	0xbdb7697c	-0.089556664
177	0xbdb6daf3	-0.0892848
178	0x3ddb2222	0.1069987
179	0x3be80142	0.007080228
180	0xbd3b537f	-0.045733925
181	0x3d197175	0.037461717
182	0x3d5cfdb6	0.053952895
183	0x3d6375d5	0.055532295
184	0xbc72e41a	-0.014824891
185	0xbcea61af	-0.028611032
186	0xbda56503	-0.08075907
187	0x3da9940c	0.08280191
188	0x3a43cdf1	0.00074693473
189	0x3a2a0982	0.0006486402
190	0xbd8fd2a4	-0.070225984
191	0x3d511b7b	0.051051598
192	0xbd648d99	-0.0557991
193	0xbccdad10	-0.025106937
194	0x3d4288e6	0.047493838
195	0x3d56d2a5	0.05244698
196	0xbd566eb5	-0.052351672
197	0x3e1f0c30	0.15531993
198	0xbcdf2cde	-0.027243074
199	0xbd51308d	-0.051071692
200	0xbc5078a3	-0.012724075
201	0x3d95ea26	0.07320051
202	0xbda7370a	-0.08164795
203	0x3c5cd8e3	0.013479444
204	0x3d3073cb	0.04307918
205	0xbcc9417b	-0.024567356
206	0xbc82429d	-0.015900904
207	0x3ddf483f	0.10902452
208	0x3cac8650	0.021060139
209	0xbdfc2b52	-0.1231295
210	0x3d91b318	0.071142375
211	0xbd08a908	-0.033364326
212	0x3cb3c0f3	0.021942591
213	0x3e46b3aa	0.19404474
214	0xbdc2d3a6	-0.09513025
215	0x3dc5937b	0.0964727
216	0xbc97f673	-0.018550133
217	0x3c007f66	0.007842874
218	0xbd4e9070	-0.050430715
219	0x3d74be6c	0.059751913
220	0xbd584e38	-0.05280897
221	0xbdc3e828	-0.09565765
222	0xbd0cbef9	-0.034361813
223	0x3d9f4035	0.077759184
224	0x3d0775f0	0.03307146
225	0xbd06420a	-0.032777824
226	0x3d4acf55	0.049514133
227	0x3c9aeae5	0.018910835
228	0x3c28a714	0.010293741
229	0x3e27fef7	0.16405855
230	0xbd6e7d31	-0.05822486
231	0x3d3b2c7f	0.04569673
232	0x3d223459	0.039600704
233	0x3c22aa16	0.009928247
234	0xbd3a9ecb	-0.045561593
235	0xbd099834	-0.033592418
236	0xbc10f91d	-0.008848456
237	0xbd8da097	-0.06915396
238	0xbd1422b5	-0.03616591
239	0x3db45fa0	0.088073015
240	0xbc219660	-0.009862512
241	0x3d4e0396	0.05029639
242	0x3c3573ab	0.011074941
243	0x3d28a10f	0.041169222
244	0xbca596f0	-0.020213574
245	0x3d653f84	0.055968776
246	0x3d1b3ca4	0.03789963
247	0xbd16ad42	-0.036786325
248	0x3a92d975	0.0011203723
249	0x3d447cdd	0.04797064
250	0x3cc6b931	0.024258228
251	0x3cb337dd	0.021877224
252	0x3d144588	0.036199123
253	0xbc15cb86	-0.009142762
254	0xbd0e254c	-0.034703538
255	0x3baf5c5f	0.0053515877

bias_ih_l0 f4 [64]
0	0x3ebf7009	0.37390164
1	0x3e01fe90	0.12694764
2	0x3ebed208	0.37269616
3	0x3e415326	0.18879375
4	0x3ec4078c	0.38287008
5	0x3e65a8d7	0.22427689
6	0x3e7ff2ee	0.24995014
7	0x3ef65c50	0.48117304
8	0x3e7f1169	0.24908985
9	0x3ef69834	0.48162997
10	0x3ecebcf0	0.40378523
11	0x3e4d4b30	0.20048213
12	0x3e963ae3	0.29341802
13	0x3e5a5e05	0.21324928
14	0x3da09778	0.0784139
15	0x3d8e688d	0.06953535
16	0xbe0599c8	-0.13046944
17	0xbda639a8	-0.08116466
18	0x3c4ea0d1	0.012611584
19	0xbe84ee9d	-0.25963297
20	0xbe407b58	-0.18797052
21	0x3e108de1	0.14116623
22	0x3e0b997a	0.13632765
23	0xbe1de0f2	-0.15417841
24	0xbd3509dc	-0.044198856
25	0xbe9432b8	-0.28944945
26	0xbe260385	-0.1621228
27	0xbd43f27a	-0.047838666
28	0xbe30228b	-0.17200677
29	0xbe27d065	-0.1638809
30	0x3de079ec	0.10960755
31	0x3b8a1bea	0.0042147534
32	0xbeb59fbf	-0.3547344
33	0xbd2e5884	-0.042564884
34	0x3e047b6c	0.12937707
35	0xbe5b5e2d	-0.21422644
36	0xbe258fad	-0.16168089
37	0x3da76434	0.08173409
38	0x3b2e4f92	0.002659772
39	0xbe3ceff6	-0.18450913
40	0xbd8b3f3b	-0.0679917
41	0x3e78ef73	0.24310093
42	0xbe01670f	-0.1263697
43	0x3eb6e3a9	0.35720566
44	0x3e6273b0	0.22114444
45	0xbe369057	-0.17828499
46	0xbe4cccf7	-0.20000063
47	0x3e1125c1	0.14174558
48	0x3ebda2dd	0.37038317
49	0x3d2dbc21	0.04241574
50	0x3eb1e218	0.34742808
51	0x3d495840	0.049156427
52	0x3ec265cd	0.37968293
53	0x3e901948	0.28144288
54	0x3e32be80	0.17455482
55	0x3ee6ca32	0.45076138
56	0x3e8fee4b	0.2811149
57	0x3ebb2446	0.36551112
58	0x3f05a3d7	0.52203125
59	0x3de0e38c	0.10980901
60	0x3e93c4e0	0.2886114
61	0x3ed1b505	0.4095842
62	0x3cfaedd5	0.030630985
63	0x3cfa8bbc	0.030584209

bias_hh_l0 f4 [64]
0	0x3ec0118b	0.37513384
1	0x3e02d842	0.12777808
2	0x3ed19e1e	0.40940946
3	0x3e5cb5b0	0.21553683
4	0x3eb8185a	0.3595608
5	0x3e7954bf	0.24348734
6	0x3deb51b8	0.11490196
7	0x3eeff9c4	0.46870244
8	0x3e1ceeac	0.15325421
9	0x3ed9887c	0.42486942
10	0x3ee85b49	0.45382145
11	0x3e552de0	0.20818281
12	0x3e9fa1f6	0.31178254
13	0x3ec70946	0.38874263
14	0x3dd59542	0.10428859
15	0x3e5d60d2	0.21618965
16	0x3c2871d0	0.010281041
17	0xbda6de59	-0.08147878
18	0x3da7b8c2	0.08189537
19	0xbe9deb7d	-0.30843726
20	0xbe1d45e0	-0.15358686
21	0x3e2aabc2	0.16667083
22	0x3e4e53d5	0.20149167
23	0xbe915845	-0.28387657
24	0xbdd1fb83	-0.1025305
25	0xbe709777	-0.23495279
26	0xbe3a8356	-0.18214163
27	0xbc0f2731	-0.008737371
28	0xbe276ee8	-0.16350901
29	0xbe63cbe2	-0.22245744
30	0x3e0795b3	0.132407
31	0x3dd1deb1	0.10247553
32	0xbdc2b48e	-0.09507094
33	0xbda79863	-0.08183362
34	0x3e948600	0.29008484
35	0xbe466cbf	-0.19377421
36	0xbdeec310	-0.11658299
37	0x3ea50d0f	0.32236525
38	0x3e88443f	0.26614568
39	0x3deb635e	0.11493562
40	0xbd12bd50	-0.035825074
41	0xbcbc690f	-0.022999315
42	0xbe4a4ea7	-0.19756566
43	0xbd726db3	-0.05918665
44	0x3e4e59fc	0.20151514
45	0xbde0c57d	-0.10975168
46	0xbeae0ba4	-0.33993256
47	0xbe2e787e	-0.17038152
48	0x3ebc513c	0.36780727
49	0x3d9a1959	0.07524366
50	0x3ea49cee	0.32150978
51	0x3daec510	0.085336804
52	0x3ed6cea5	0.41954532
53	0x3e65b899	0.224337
54	0x3db761e1	0.08954216
55	0x3ee62b66	0.44954985
56	0x3ea4ecac	0.32211816
57	0x3ea96366	0.33083647
58	0x3ef5f17e	0.48035806
59	0x3db9cc94	0.09072223
60	0x3e8bff1b	0.27343068
61	0x3ed7a1d0	0.4211564
62	0x3d063f6d	0.03277533
63	0x3d8ed1d3	0.069736145

weight_ih_l1 f4 [64, 16]
0	0xbd554a47	-0.05207279
1	0xbcd46cca	-0.02593078
2	0x3dea461b	0.11439153
3	0x3b815d9d	0.003947927
4	0xbde8077c	-0.113295525
5	0x3e38f638	0.18062675
6	0x3d041c77	0.03225371
7	0xbced2305	-0.028947363
8	0xbc2b07e3	-0.010438892
9	0x3d6643f2	0.05621714
10	0xbe14e00d	-0.14538594
11	0x3d3c3eaa	0.0459582
12	0x3d9671c8	0.07345921
13	0xbbf002eb	-0.0073245666
14	0xbde172ed	-0.110082485
15	0x3e1924d8	0.14955461
16	0x3e70f59d	0.23531194
17	0xbda0b03f	-0.07846116
18	0xbdadc093	-0.08483996
19	0xbbc2dad4	-0.0059464965
20	0x3d30a7c4	0.043128744
21	0x3b1772a8	0.0023109112
22	0xbd85f39c	-0.065406054
23	0x3e8eb89a	0.27875215
24	0xbce82dc3	-0.028342133
25	0xbd9e7e22	-0.07738902
26	0x3d57cab1	0.052683536
27	0xbca2b7b6	-0.01986299
28	0x3d75e789	0.060035262
29	0xbe0d80d5	-0.13818677
30	0x3d10e32b	0.035372894
31	0x3cf80056	0.030273598
32	0x3ba5baa2	0.0050576488
33	0xbdcae661	-0.099072225
34	0x3ce527c5	0.027973065
35	0x3c735992	0.014852898
36	0xbb95d917	-0.0045729983
37	0x3e36f438	0.178666
38	0x3c3d54a8	0.011555828
39	0xbcf769ad	-0.030201757
40	0xbd676c96	-0.05650004
41	0x3b1996c0	0.0023435801
42	0xbd7351e7	-0.05940428
43	0x3c0c551a	0.008565212
44	0x3d06b9a8	0.0328919
45	0xbe150cca	-0.1455566
46	0xbcb2f6e2	-0.021846239
47	0x3d84d6db	0.06486293
48	0xbc9b3eb9	-0.018950807
49	0xbd90181b	-0.07035848
50	0x3d17fde1	0.037107352
51	0x3cad94ab	0.021189054
52	0x3c6b3884	0.014356736
53	0x3da3ad9d	0.079920985
54	0x3cec9bba	0.02888285
55	0xbc33c0cf	-0.010971262
56	0xbc57cede	-0.01317188
57	0x3cba2460	0.022722423
58	0xbc6b48c4	-0.01436061
59	0x3d016a21	0.031595353
60	0x3d1b5996	0.037927233
61	0xbd3f713e	-0.046738856
62	0xbd39af06	-0.04533293
63	0x3c9d399e	0.019192513
64	0x3d011dfb	0.031522732
65	0xbd8e1603	-0.06937792
66	0xbc22dcab	-0.009940307
67	0xbd4a28e9	-0.04935542
68	0xbc85e0c6	-0.016342532
69	0x3d4fac24	0.050701275
70	0xbda3fb6d	-0.0800694
71	0x3cff440e	0.03116038
72	0xbb22ddf8	-0.0024851542
73	0x3c190a86	0.009340888
74	0xbd6c76bc	-0.05773042
75	0xbd8260fd	-0.06366155
76	0x3c4d8219	0.012543225
77	0xbd89f1a2	-0.06735541
78	0xbbc4e5b6	-0.006008829
79	0x3d9d5b5b	0.0768344
80	0xbbe6be13	-0.0070417016
81	0xbc0fa81a	-0.008768106
82	0x3d25dc42	0.040493257
83	0xbd1276ee	-0.03575795
84	0xbc39cd4f	-0.011340453
85	0x3af6dbf4	0.0018833862
86	0xbd33711a	-0.043809034
87	0xbd052320	-0.0325042
88	0xbc9e8d53	-0.019354498
89	0xbc4636d5	-0.012098034
90	0xbd112685	-0.035437126
91	0x3c5524c4	0.013009254
92	0xbc6d6cd3	-0.014491278
93	0xbd61190a	-0.05495552
94	0x3c8e89fb	0.017399779
95	0x3d07adb6	0.033124648
96	0x3d1cdf3b	0.038298827
97	0xbda71dc5	-0.08159975
98	0x3dff7c2f	0.12474858
99	0xbd1ff90d	-0.039055873
100	0xbdeddef2	-0.11614789
101	0x3e78660a	0.24257675
102	0xbb94fde9	-0.00454687
103	0x3db62f4d	0.08895741
104	0xbe473071	-0.19452073
105	0x3dcf1212	0.101108685
106	0xbe1e3818	-0.15451086
107	0x3d7789f9	0.060434315
108	0x3e1b443a	0.15162745
109	0xbd973480	-0.073830605
110	0xbdd5204d	-0.104065515
111	0x3e0481ab	0.1294009
112	0x3e8a8dd2	0.27061325
113	0x3cbda054	0.02314774
114	0xbd994ac9	-0.07484967
115	0x3d15fb55	0.036616642
116	0xbd6418f6	-0.055687867
117	0x3db605d2	0.08887829
118	0xbd443fbe	-0.04791235
119	0x3e786fc3	0.24261384
120	0xbdbc509e	-0.09195064
121	0xbdb6b380	-0.08920956
122	0xbd28833c	-0.04114078
123	0x3d398141	0.04528928
124	0x3dfb9dd0	0.1228596
125	0x3cba2301	0.02272177
126	0x3dd53d85	0.104121245
127	0x3c13381a	0.008985544
128	0x3c91aa87	0.01778151
129	0xbc3c8b76	-0.011507859
130	0xbc246bab	-0.010035436
131	0xbd1fe4e3	-0.039036643
132	0xbcfb925c	-0.030709438
133	0xbc592c72	-0.0132552255
134	0xbd810bf5	-0.06301109
135	0x3d4b4a03	0.04963113
136	0xbc3e55e6	-0.0116171595
137	0x3d0b85c4	0.034063116
138	0xbcb1a5ff	-0.021685598
139	0xbd439595	-0.047750074
140	0x3c8c5e19	0.017134713
141	0xbcad21d5	-0.021134296
142	0xbd352faa	-0.04423491
143	0x3db33629	0.087505646
144	0x3e2713a5	0.16316088
145	0xbdc744cf	-0.09729921
146	0xbcd9c133	-0.026581382
147	0x3d72d767	0.059287455
148	0x3c85b532	0.016321752
149	0x3e419cb4	0.18907434
150	0xbda46a67	-0.08028107
151	0x3e1168c1	0.14200117
152	0xbcf1b02e	-0.029502954
153	0xbd276a9f	-0.040873166
154	0x3c97858e	0.018496301
155	0x3c93877c	0.01800894
156	0x3dcb31bf	0.09921598
157	0x3b9921d7	0.0046732235
158	0x3d8bf112	0.0683309
159	0x3dfa750d	0.12229357
160	0x391671d6	0.00014347522
161	0x3ba1aa41	0.004933626
162	0x3a78f847	0.00094974454
163	0x3b356cd5	0.0027683277
164	0xba706a38	-0.0009171101
165	0xb9237260	-0.000155875
166	0xbae42499	-0.0017405926
167	0xba0c3162	-0.0005347935
168	0xb9ceae6c	-0.00039421336
169	0x3b496f32	0.0030736444
170	0xbb32883a	-0.0027241842
171	0x3b087ba4	0.0020825649
172	0x3b29dd47	0.0025919245
173	0x3bc41236	0.005983616
174	0x3b958b1e	0.004563703
175	0xba80fc76	-0.0009840864
176	0x3c3c0b70	0.011477336
177	0xbd10d980	-0.035363674
178	0x3c4559f5	0.012045373
179	0xbc4109a5	-0.011782085
180	0xbb16c2cf	-0.0023004299
181	0x3c9a96eb	0.018870791
182	0x3c28b5ff	0.0102972975
183	0x3d17b582	0.037038334
184	0xbbe7956a	-0.007067372
185	0xbbd1957b	-0.0063959933
186	0x3c9b363d	0.018946761
187	0x3b2cb932	0.0026355502
188	0x3c111e64	0.008857343
189	0xbd628398	-0.05530128
190	0xbd3e176f	-0.046409067
191	0x3d9a1aac	0.075246185
192	0xbbd96f5b	-0.006635589
193	0xbced9c18	-0.029005095
194	0x3d4ebb2d	0.050471473
195	0xbcbf4a33	-0.02335081
196	0xbd10b41d	-0.03532802
197	0x3e3c5112	0.18390301
198	0x3c8de85f	0.017322717
199	0x3c83b879	0.016079174
200	0xb9485462	-0.00019104921
201	0xbba3bd45	-0.004996928
202	0xbd0269ae	-0.031839065
203	0x3cf85b41	0.03031695
204	0x3d05403f	0.032531973
205	0xbd611da5	-0.05495991
206	0xbdce14df	-0.100625746
207	0x3dc14177	0.094363146
208	0x3db4a5e9	0.08820707
209	0x3cff9ee4	0.031203695
210	0x3d3d7184	0.046250835
211	0x3dd42409	0.10358436
212	0xbcd42a94	-0.02589921
213	0x3dc22e04	0.09481433
214	0xbcd079b1	-0.025448652
215	0x3da85fd8	0.08221406
216	0xbdac09e8	-0.08400327
217	0x3cd49996	0.025952142
218	0xbd03757d	-0.032094467
219	0x3d237fcf	0.03991681
220	0x3dc028eb	0.093828045
221	0x3caadce2	0.020857278
222	0xbd0e4c51	-0.03474075
223	0x3da8e2fa	0.08246417
224	0xbb179c96	-0.0023134104
225	0x3a86b1ae	0.0010276341
226	0x3b0e55f5	0.0021718715
227	0x3afc97ba	0.0019271292
228	0xbb00e8d0	-0.0019670017
229	0x3ae98f12	0.0017819128
230	0x3a0c6429	0.0005355501
231	0xbaec9656	-0.0018050175
232	0xbb01a64c	-0.0019782959
233	0x3aa5315a	0.0012603209
234	0xbaf859b2	-0.001894763
235	0x3aa7335a	0.0012756393
236	0x3aebf902	0.0018003287
237	0x3b2e0881	0.0026555362
238	0x3ae45da8	0.0017422931
239	0xbacfb015	-0.0015845323
240	0x3d14f1a0	0.036363244
241	0xbc8d2eee	-0.017234292
242	0xbc112738	-0.008859448
243	0xbc087fa9	-0.008331218
244	0x3c6dc617	0.01451256
245	0x3d1151b8	0.035478324
246	0xbc6cb283	-0.014446857
247	0x3d500591	0.05078656
248	0xb9dde98f	-0.0004232642
249	0xbbffabd4	-0.007802466
250	0x3ca3aa35	0.019978622
251	0xbc921af0	-0.01783511
252	0x3c51e5a0	0.0128110945
253	0xbd83d80d	-0.06437693
254	0xbd1d8f27	-0.0384666
255	0x3dbbbd42	0.091669574

weight_hh_l1 f4 [64, 16]
0	0x3c21edf5	0.0098833935
1	0xbd570fbd	-0.052505244
2	0x3d6746b0	0.056463897
3	0xbd28685e	-0.041115157
4	0x3db13ff6	0.08654778
5	0x3db0a632	0.08625449
6	0x3dbedcad	0.09319434
7	0x3ddc32eb	0.10751899
8	0xbdc7b22e	-0.09750782
9	0xbdbe2edd	-0.09286282
10	0xbc1774df	-0.009244173
11	0xbde069fd	-0.10957716
12	0xbdcdae5a	-0.100430205
13	0x3e0c27fe	0.13687131
14	0xbb86cbbd	-0.004113643
15	0xbddf822b	-0.109134994
16	0x3da88568	0.0822857
17	0x3d782329	0.060580406
18	0xbd6ccd23	-0.05781282
19	0x3e1f235f	0.15540837
20	0xbde8d578	-0.11368841
21	0xbdbd649f	-0.092477076
22	0xbdf1152d	-0.11771617
23	0xbdac5b7e	-0.08415888
24	0x3d8e8e33	0.06960716
25	0x3d46d957	0.048547115
26	0x3bb1c87d	0.0054255114
27	0xbccb07c0	-0.024783969
28	0x3cc7e276	0.024399977
29	0xbd39ba25	-0.045343537
30	0x3c0b5a54	0.008505423
31	0xbd4300e0	-0.047608256
32	0x3d37ab7a	0.044841267
33	0xbd94a2a1	-0.072575815
34	0x3ba84de3	0.005136238
35	0x3dff2624	0.124584466
36	0x3dbe78fa	0.09300418
37	0x3d49a652	0.04923088
38	0x3d7fb0b9	0.062424395
39	0x3d5bc9ec	0.053659365
40	0xbdf171c3	-0.117892765
41	0xbce60f2f	-0.028083412
42	0xbb7d789b	-0.0038676623
43	0xbe3ed36f	-0.18635343
44	0xbe37e32b	-0.17957751
45	0x3de7a2bb	0.11310335
46	0xb9223395	-0.0001546874
47	0xbe64df09	-0.22350706
48	0x3db9b659	0.09067983
49	0xbc3e1fb3	-0.011604237
50	0xbd534b6c	-0.0515856
51	0x3d8bdcf3	0.06829252
52	0x3d1a7ddc	0.037717685
53	0x3d03e22b	0.032198112
54	0x3b4eb47b	0.003154068
55	0x3c935b10	0.017987758
56	0xbd56d734	-0.052451327
57	0xbc7a1c95	-0.015265604
58	0xbae1d13c	-0.0017228494
59	0xbde40220	-0.11133218
60	0xbd7e27d5	-0.062049706
61	0x3d53f90b	0.051751178
62	0xbb37b133	-0.0028029203
63	0xbe0c9656	-0.13729224
64	0x3d844285	0.06458
65	0x3d6d3212	0.05790908
66	0xbd1cec12	-0.03831107
67	0x3d1526fe	0.03641414
68	0xbd44cec8	-0.048048764
69	0xbcad036d	-0.021119798
70	0xbdc41876	-0.09574978
71	0xbd883cb0	-0.066522
72	0x3c8ebd99	0.017424392
73	0x3d117358	0.03551039
74	0x3a95a811	0.0011417886
75	0xbd96340c	-0.07334146
76	0x3d4cfa3a	0.050043322
77	0xbcb8928f	-0.022530822
78	0x3ba5f67b	0.005064783
79	0xbdcb6b90	-0.09932625
80	0xbc977a9a	-0.018491078
81	0x3c2aa20b	0.010414611
82	0xbd0987b3	-0.03357668
83	0x3d3dbe4a	0.046324052
84	0xbc2c8174	-0.010528911
85	0xbcd92d09	-0.026510732
86	0xbcf80cec	-0.0302796
87	0xbd044320	-0.032290578
88	0xba23ee70	-0.00062534865
89	0x3d53623d	0.05160736
90	0xbaa64b14	-0.001268717
91	0xbce9cce0	-0.028540075
92	0xbd5f6065	-0.05453529
93	0xbd5c0f96	-0.0537258
94	0xbb31ac6d	-0.002711083
95	0xbceea366	-0.029130649
96	0x3e27526d	0.16340037
97	0x3e04276e	0.12905666
98	0xbe3b1ed1	-0.18273474
99	0x3dc842f4	0.09778395
100	0xbe0a813b	-0.1352586
101	0xbd1d974f	-0.038474377
102	0xbe0c40dc	-0.13696617
103	0xbdef2f0e	-0.11678897
104	0x3d2de101	0.04245091
105	0x3db9f5a8	0.09080058
106	0x3c8489dd	0.01617902
107	0xbe261c05	-0.16221626
108	0xbc90760f	-0.01763442
109	0xbc003b1e	-0.007826595
110	0x3b3da7f4	0.002893922
111	0xbe6cbc9c	-0.23118824
112	0x3d94dcd0	0.07268679
113	0xbac2a03c	-0.0014848779
114	0xbdbaf8c1	-0.09129477
115	0x3e091f68	0.13390887
116	0xbdb2561e	-0.08707832
117	0xbdab2f01	-0.08358575
118	0xbd0eed44	-0.034894243
119	0xbd5b8641	-0.05359483
120	0x3d187aa8	0.03722635
121	0x3cd35b07	0.025800241
122	0x3ba9800b	0.0051727346
123	0xbdbe3945	-0.09288267
124	0x3c00ab8f	0.007853403
125	0x3c214415	0.009842892
126	0x3bde8508	0.006790761
127	0xbe268c87	-0.16264544
128	0x3d3e3f7e	0.04644727
129	0x3d9a866f	0.075451724
130	0xbd825909	-0.06364638
131	0x3d8300fb	0.063966714
132	0xbda768ae	-0.08174263
133	0xbd402f92	-0.046920367
134	0xbe12bac6	-0.14329061
135	0xbdbfb7cb	-0.093612276
136	0x3d53e865	0.0517353
137	0x3d7973a2	0.06090129
138	0x3b97e34b	0.0046352497
139	0xbd50cf6c	-0.050979063
140	0xb9d408e7	-0.00040442424
141	0xbd4f8c77	-0.050671067
142	0x3b9128d2	0.004429915
143	0xbd8ec2fa	-0.069707826
144	0x3dc6f5d6	0.09714858
145	0xbd2ef641	-0.042715315
146	0xbe00c70e	-0.12575933
147	0x3e0df120	0.13861513
148	0x3d110f69	0.035415087
149	0xbd2ecf12	-0.042677946
150	0x3d384c5b	0.044994693
151	0x3c7ca33e	0.015419779
152	0xbdb8be58	-0.0902068
153	0xbc7ea4f0	-0.015542254
154	0x3a7049ba	0.00091662596
155	0xbe093c78	-0.13401973
156	0xbd90ab62	-0.07063939
157	0x3dad3926	0.08458166
158	0x3afe653a	0.001940883
159	0xbe01f5f0	-0.12691474
160	0xbb1f4ccd	-0.0024307251
161	0xbb11dd6c	-0.0022257222
162	0x3ba08504	0.004898669
163	0xbb9b0db9	-0.0047318605
164	0xb887b318	-6.4706604e-05
165	0x3b0dd89b	0.0021644
166	0x3b2c7e15	0.0026320268
167	0x3b7dc435	0.0038721685
168	0x3a27d2a8	0.00064019347
169	0xbb8fbb22	-0.0043863216
170	0x3a1bb4a6	0.00059396995
171	0x3b875b85	0.004130783
172	0x3b908442	0.0044102976
173	0x3b7a947f	0.0038235483
174	0xb97e67e1	-0.00024262026
175	0x3b8ad2e8	0.0042365678
176	0x3d1b3ee3	0.03790177
177	0xbbb743f2	-0.0055928165
178	0xbd2f4c35	-0.042797286
179	0x3d2b98db	0.04189382
180	0x3ccb5024	0.024818487
181	0x3ba8df6d	0.0051535876
182	0xbcc6335a	-0.024194408
183	0x37b00c20	2.0986481e-05
184	0xbceb0a2d	-0.028691376
185	0x3cf8032c	0.03027495
186	0xbade9656	-0.001698206
187	0xbd4b1b66	-0.049586676
188	0xbd5849dd	-0.052804817
189	0xbc9ffdff	-0.019530294
190	0xbb8fe90a	-0.004391794
191	0xbd7c065b	-0.0615295
192	0x3decefed	0.115692
193	0xbcc8bffb	-0.024505606
194	0xbd2b2c0d	-0.041790057
195	0xbd045812	-0.032310553
196	0x3d7cab1f	0.06168663
197	0x3daf9363	0.08573034
198	0x3d6b7653	0.05748589
199	0x3da5cc8e	0.08095656
200	0xbdaf9936	-0.085741445
201	0xbd8ead26	-0.06966619
202	0xba2eb5e6	-0.0006664678
203	0xbe2a3ea4	-0.16625458
204	0xbcbba486	-0.0229056
205	0x3e007841	0.12545873
206	0xbb470d41	-0.003037289
207	0xbe4a768d	-0.19771786
208	0x3d02092b	0.031747025
209	0xbda8192c	-0.08207926
210	0xbdc54c46	-0.09633689
211	0x3e219bae	0.15782043
212	0x3d9e805a	0.07739325
213	0xbd71f553	-0.05907185
214	0x3dc71ef4	0.09722701
215	0x3c078182	0.008270623
216	0xbdbefba4	-0.093253404
217	0x3d08ecdf	0.033429023
218	0xbb43e6d9	-0.0029892235
219	0xbe1196d0	-0.14217687
220	0xbe387d94	-0.18016654
221	0xbd03df70	-0.03219551
222	0x3a3a1fd7	0.00071000814
223	0xbe40d37e	-0.18830678
224	0xbabb97f9	-0.0014312259
225	0xb9e35bbe	-0.00043365167
226	0x3adbd6ef	0.0016772429
227	0xbad8d8bc	-0.0016544084
228	0x3a72ec72	0.00092668005
229	0x3afd6b7c	0.0019334401
230	0x3a557372	0.0008142508
231	0x3aa7a546	0.0012790344
232	0xb9ab984b	-0.0003272913
233	0xba6a9d12	-0.0008949797
234	0xb86ad110	-5.5984652e-05
235	0xb8b500ee	-8.630926e-05
236	0xb89dbd25	-7.521574e-05
237	0x3a8b3920	0.0010621883
238	0x369e4930	4.717287e-06
239	0xb91300c5	-0.00014019299
240	0x3d437ac2	0.047724493
241	0xbadd0582	-0.0016862603
242	0xbd604709	-0.054755244
243	0x3d2f183b	0.042747717
244	0x3cad3e8d	0.02114799
245	0x3b993806	0.004675868
246	0xbcadf622	-0.02123553
247	0x3ace57fc	0.0015742774
248	0xbce3583e	-0.027752038
249	0x3cd65c85	0.026167164
250	0xb9e6eebb	-0.00044046887
251	0xbd6ebc65	-0.058285136
252	0xbd5d2df5	-0.053998906
253	0xbc539692	-0.012914317
254	0xbb64e2c6	-0.0034925207
255	0xbd86f40f	-0.06589519

bias_ih_l1 f4 [64]
0	0x3ea3e180	0.3200798
1	0x3cfaa594	0.030596532
2	0x3e9199f9	0.28437784
3	0x3e89aae9	0.26888207
4	0x3e0d7834	0.13815385
5	0x3d92f3c0	0.07175398
6	0x3e84aaea	0.25911647
7	0x3e419a37	0.18906485
8	0x3dbb2d58	0.09139508
9	0x3eb957be	0.36199754
10	0xbbae9e7c	-0.0053289514
11	0x3e318c80	0.17338753
12	0x3ee49071	0.4464145
13	0x3eb0dd22	0.3454371
14	0xba1c2f48	-0.0005957973
15	0x3e3c7707	0.1840478
16	0x3ea7ff45	0.32811943
17	0xbdd5beee	-0.104368076
18	0x3cb21f61	0.021743478
19	0x3dbde5fc	0.09272382
20	0xbd42096c	-0.047372267
21	0x3dcf8546	0.10132842
22	0xbd168493	-0.036747526
23	0xbdebde7c	-0.11517045
24	0xbd3c47e9	-0.045967016
25	0x3d00b19a	0.031419374
26	0xbb4e5be6	-0.0031487881
27	0x3df6f27e	0.120579705
28	0x3e42fd53	0.19041948
29	0x3d40e99e	0.047097795
30	0xb9a6b52a	-0.00031796965
31	0x3e358fb6	0.17730603
32	0x3cd19f60	0.025588691
33	0x3d142fae	0.036178283
34	0x3d5319c7	0.051538255
35	0x3e40b502	0.18819049
36	0x3df2d200	0.118564606
37	0xbe136dae	-0.14397308
38	0x3c812df0	0.015768975
39	0xbe39e4e0	-0.18153715
40	0xbe14398d	-0.14475079
41	0x3c2736a1	0.010205896
42	0x3d85dae9	0.065358944
43	0xbe9c711b	-0.30555043
44	0xbdd5a0ce	-0.10431062
45	0xbe050c39	-0.12992944
46	0x3c3a871e	0.0113847535
47	0xbea589f5	-0.32331815
48	0x3e91402f	0.2836928
49	0x3ddf2b5d	0.10896943
50	0x3ed18571	0.4092212
51	0x3eb8ec63	0.3611785
52	0x3e1227ed	0.14273043
53	0x3daf7372	0.08566941
54	0x3e301ad9	0.17197742
55	0x3e45566c	0.19271249
56	0xbd29e969	-0.041482363
57	0x3deb8b1b	0.11501142
58	0xbbaed701	-0.005335689
59	0x3e437c82	0.19090465
60	0x3e915e8a	0.2839244
61	0x3e9b7c6f	0.30368373
62	0xba1f4cc9	-0.00060768105
63	0x3e817eb0	0.25291967

bias_hh_l1 f4 [64]
0	0x3e29c02f	0.16577218
1	0xbc3deb26	-0.011591708
2	0x3e9dfdd9	0.30857733
3	0x3e952319	0.2912834
4	0x3e1548ee	0.14578602
5	0x3dade7e7	0.084914975
6	0x3ea7067e	0.3262214
7	0x3e8641ef	0.26222178
8	0x3dc38168	0.09546167
9	0x3ea5d70b	0.32390627
10	0xbbae9e2f	-0.0053289155
11	0x3e31769c	0.17330402
12	0x3ee396a7	0.44450876
13	0x3ea66a5c	0.3250302
14	0xba1c2f48	-0.0005957973
15	0x3e4dc212	0.20093563
16	0x3e49b425	0.19697626
17	0xbdb793d5	-0.089637436
18	0x3c5db5d3	0.01353212
19	0x3d95a607	0.07307058
20	0xbd554996	-0.05207213
21	0x3d1f7fa9	0.038940106
22	0xbdc0ac38	-0.09407848
23	0xbe0cbb64	-0.13743359
24	0x3c974ec0	0.018470168
25	0x3d8658b8	0.065598905
26	0xbb4e5bc6	-0.0031487807
27	0x3e34ad2e	0.17644188
28	0x3e4ef7f6	0.20211777
29	0x3d26150e	0.040547423
30	0xb9a6b51e	-0.0003179693
31	0x3e4e0636	0.20119557
32	0x3dacba2f	0.08433949
33	0xbda9bac4	-0.08287576
34	0xbe833968	-0.25629735
35	0xbc452cb7	-0.012034587
36	0x3d24d7ce	0.04024487
37	0x3e28119a	0.16412964
38	0x3d5fa8f1	0.054604474
39	0x3e658c85	0.22416885
40	0xbe36e683	-0.1786137
41	0xbcb01717	-0.021495385
42	0xbd8f7e11	-0.07006467
43	0xbea5a02e	-0.3234877
44	0xbe50d7a5	-0.20394762
45	0x3d644c06	0.055736564
46	0xbc96e235	-0.01841841
47	0xbeb24b5c	-0.3482312
48	0x3e1ec06a	0.15503088
49	0x3d608612	0.05481536
50	0x3de14578	0.10999578
51	0x3ea86607	0.3289034
52	0x3d8b10d0	0.06790316
53	0x3d39b0df	0.045334693
54	0x3e0b8fb3	0.13629036
55	0x3e317719	0.17330588
56	0xbd364f7e	-0.044509403
57	0x3e7fcdea	0.24980894
58	0xbbaed570	-0.0053355023
59	0x3e0ac6ca	0.13552395
60	0x3e95aea0	0.2923479
61	0x3e6a9a1d	0.22910352
62	0xba1f4cc9	-0.00060768105
63	0x3e3cc084	0.18432814

weight f4 [1, 16]
0	0x3e63193d	0.22177596
1	0x3eb7a6d6	0.35869473
2	0xbef0e667	-0.47050783
3	0x3e9dc883	0.3081704
4	0xbe6859f3	-0.22690563
5	0xbc313bf8	-0.01081752
6	0xbf102ab3	-0.56315154
7	0xbee62f47	-0.44957945
8	0x3e7f876d	0.24954005
9	0x3f07b91c	0.5301683
10	0x3b782943	0.003786639
11	0xbe67e4fb	-0.22645943
12	0xbeddd8fb	-0.43329605
13	0xbed2b355	-0.41152444
14	0xbc87da34	-0.01658354
15	0xbe5eb1eb	-0.21747558
